my_lora/lora_medical_512.pth (torch, 535546 bytes, 32 tensors)

model.layers.0.self_attn.q_proj.lora.A.weight f4 [8, 512]
0	0xbc3619fb	-0.011114593
1	0xbc66c6e4	-0.014085505
2	0xbc09affb	-0.008403773
3	0xbc20b445	-0.009808605
4	0xbc080111	-0.0083010355
5	0xbcc3bfc7	-0.023895158
6	0x3b175d57	0.0023096406
7	0x3d77cb35	0.060496528
8	0x3cb26846	0.021778237
9	0xbcb39eb4	-0.021926261
10	0xbc9b7549	-0.018976824
11	0x3a3259de	0.00068035524
12	0xbd1918d3	-0.03737719
13	0xbcbcf209	-0.02306463
14	0x3baa24e5	0.0051923865
15	0xbd561606	-0.052267097
16	0xbc77aaa7	-0.01511637
17	0xbbd123c8	-0.0063824393
18	0x3d2a720f	0.04161268
19	0xbd1dbd74	-0.038510755
20	0xbc77be0a	-0.015120992
21	0xbd159bbb	-0.03652547
22	0x3c2e4fdd	0.010639158
23	0x3c7800c7	0.015136904
24	0x3c8ac69c	0.016940407
25	0x3d89a298	0.067204654
26	0xbcd7e33e	-0.026353475
27	0x3c08c401	0.008347512
28	0xbd641b71	-0.055690233
29	0xbc99a42e	-0.018755045
30	0x3bed5e48	0.007243905
31	0x3c3e85c2	0.01162857
32	0x3bf140e0	0.00736247
33	0xbd54b9bb	-0.05193494
34	0x3a313d57	0.00067611545
35	0xbc9cd1e2	-0.019143049
36	0xbcd9e422	-0.02659804
37	0x3cc10ad2	0.02356473
38	0x3c442f38	0.011974148
39	0x3b75af02	0.0037488346
40	0x3c0c1cd0	0.008551791
41	0xbd1509ec	-0.036386415
42	0xbc6d00fe	-0.014465569
43	0x3c0fd02c	0.008777659
44	0xbd1be33f	-0.038058516
45	0xbcdf7de5	-0.02728171
46	0xbc97a3e4	-0.018510766
47	0x3d661631	0.056173507
48	0x3ca7a72e	0.02046546
49	0xbb7c91af	-0.0038538983
50	0x3d7b1e09	0.06130794
51	0xbc390abb	-0.011294062
52	0xbb767cc5	-0.003761099
53	0xbd57fb92	-0.05273015
54	0xbbf993cb	-0.0076164952
55	0xbbf84026	-0.0075760065
56	0x3c06d90c	0.008230459
57	0xbc667603	-0.014066222
58	0xbc5add04	-0.013358358
59	0xbc863c41	-0.016386153
60	0xbd35f360	-0.044421554
61	0xbc059243	-0.008152547
62	0x3d369394	0.044574335
63	0xbc3b746d	-0.011441332
64	0xbd3bdc7a	-0.04586456
65	0xbb02f19b	-0.0019980434
66	0x3cf7aa7f	0.030232666
67	0x3c4107d3	0.011781651
68	0x3cd11830	0.025524229
69	0x3c8394c2	0.016062144
70	0xbaf9419b	-0.0019016744
71	0xbb41bf5e	-0.0029563527
72	0x3b9e48ce	0.0048304563
73	0xbb03479d	-0.0020031699
74	0xbc364a77	-0.011126152
75	0xbc881ee5	-0.016616294
76	0xbba56da3	-0.00504847
77	0xbd15799d	-0.036492933
78	0x3d6955f9	0.056966756
79	0xbc82ea5f	-0.015980897
80	0x3c655a27	0.013998545
81	0xbcf5adc8	-0.029990092
82	0x3c236732	0.009973334
83	0x3d3e1451	0.046406094
84	0x3cddb6b1	0.027064653
85	0x3c705f0c	0.014671098
86	0x3d4af203	0.049547207
87	0x3ce30a3a	0.027714837
88	0x3d36cd4f	0.04462939
89	0xbd45369d	-0.048147786
90	0x3d19de87	0.037565734
91	0xbc8f534c	-0.017495774
92	0xbb3b93bc	-0.0028621992
93	0xbc250766	-0.010072565
94	0xbc2424f5	-0.010018577
95	0xbd31a882	-0.043373592
96	0x3d0b77bc	0.034049734
97	0x3cf1abda	0.02950089
98	0xba432c21	-0.00074452354
99	0x3d4d60b2	0.050141044
100	0xbcb1fd98	-0.021727368
101	0xbd04d6ef	-0.03243154
102	0xbb530a34	-0.0032202126
103	0x3cc03f0c	0.023467563
104	0xbc3f01c9	-0.01165814
105	0x3c0db456	0.0086489525
106	0x3d5d5b8a	0.054042377
107	0x3caa8b61	0.020818414
108	0x3c92f7f4	0.017940499
109	0xba8af86e	-0.0010602602
110	0x3c5516cc	0.0130059235
111	0xb974ceb8	-0.00023346662
112	0x3c621e69	0.013801196
113	0xbbcf3413	-0.0063233464
114	0x3cc7b3bc	0.024377696
115	0xbc499b33	-0.012305069
116	0xba45b48e	-0.00075418584
117	0x3b572e42	0.0032833968
118	0x3cd38bc8	0.025823489
119	0x3ba2ae4f	0.004964627
120	0x3c7bf3db	0.015377964
121	0xbb058a6e	-0.00203767
122	0x3d19c454	0.03754075
123	0x3c10a4f9	0.008828395
124	0xbc8b6047	-0.017013682
125	0x3b8c5f7b	0.004283843
126	0xbbe17334	-0.0068801884
127	0x3a17f8fe	0.00057972956
128	0x3a6234a6	0.0008629061
129	0xbc8f8b4f	-0.017522482
130	0x3de0a305	0.109685935
131	0xbc8f61f4	-0.017502762
132	0x3c8ee775	0.017444352
133	0x3c5c7c34	0.013457347
134	0x3cc9ec61	0.024648847
135	0x3c878220	0.01654154
136	0xbdbb61c6	-0.09149508
137	0xbd0526d6	-0.03250774
138	0xbd4b5214	-0.049638823
139	0x3cb7ae18	0.022421882
140	0x3d05601d	0.032562364
141	0xbbaa2289	-0.005192105
142	0x3b766bda	0.0037600906
143	0xbc492d0d	-0.012278807
144	0x3cfcd8a9	0.03086503
145	0x3be9adab	0.0071312985
146	0x3d0b1287	0.033953216
147	0x3c527b65	0.012846802
148	0xbc51d405	-0.012806897
149	0x3d83a512	0.06427969
150	0x3c0b2527	0.0084927445
151	0x3cde24b3	0.027117109
152	0x3c7fb1b2	0.015606331
153	0x3af3279d	0.0018551234
154	0x3d21db77	0.03951594
155	0xbd36861e	-0.044561498
156	0xbcf4dd7d	-0.02989077
157	0xbc59d638	-0.013295703
158	0xbc277b2d	-0.0102222385
159	0x3a9f11a9	0.0012136
160	0x3c684c8d	0.014178407
161	0xbc27cf99	-0.010242366
162	0xbc33d0ee	-0.010975106
163	0x3cafba6d	0.0214512
164	0x3cdfd5f2	0.027323697
165	0x3d468d8f	0.048474845
166	0x3c585216	0.013203165
167	0xbcbbb713	-0.022914445
168	0xbd3b9362	-0.045794852
169	0xbca7b938	-0.020474061
170	0x3c928044	0.017883427
171	0x3d26741c	0.040638074
172	0x3d1d9608	0.03847316
173	0x3d04709f	0.032333966
174	0xbd35b018	-0.04435739
175	0x3d443b0b	0.04790787
176	0xbc067057	-0.008205495
177	0xbd34a17b	-0.044099312
178	0xbc3aa217	-0.011391184
179	0x3c572046	0.013130253
180	0xbcc1724f	-0.023614077
181	0xbc5e2181	-0.013557793
182	0x3bab13f2	0.0052208835
183	0x3c5143c6	0.012772506
184	0x3af7af31	0.0018896816
185	0x3c67b618	0.014142536
186	0xbd995e5c	-0.07488701
187	0x3c4b8310	0.012421384
188	0x3ca07475	0.019586781
189	0x3d574951	0.052560154
190	0x3c7614c0	0.015019596
191	0xbc58f504	-0.01324201
192	0xbc976df7	-0.018485053
193	0xbd7b934a	-0.061419763
194	0x3b402264	0.0029317373
195	0x3ae04a2f	0.0017111952
196	0xbd4a80b6	-0.049439155
197	0x3c08ba40	0.008345187
198	0x3afb9edc	0.0019197124
199	0xbd2f3a53	-0.04278023
200	0xbc82d3ca	-0.01597013
201	0xbc434135	-0.011917402
202	0x3ca5f2ae	0.02025732
203	0x3d69865b	0.057012897
204	0x3cac1a06	0.021008503
205	0xbd0ad7da	-0.03389726
206	0x3d71307d	0.058884133
207	0xbd3560e4	-0.044281855
208	0xbc4cfff2	-0.012512194
209	0x3957f21e	0.00020594193
210	0x3d0bb798	0.034110636
211	0x3cbd0b0a	0.023076553
212	0x3c812b23	0.01576764
213	0xbd3bfdc0	-0.04589629
214	0x3d49ed72	0.04929871
215	0xbb60df88	-0.0034312923
216	0xbc24463a	-0.010026509
217	0x3ca8b35e	0.020593341
218	0x3cb3ffe0	0.021972597
219	0x3c7a40b2	0.015274214
220	0xbbb8d3a3	-0.0056404634
221	0xbd2309d9	-0.039804313
222	0xbd168428	-0.036747128
223	0xbd22ae9a	-0.039717294
224	0xbc8f9f2a	-0.01753195
225	0xbc4fd71d	-0.012685564
226	0xbd50cb81	-0.050975326
227	0x3cfb58ed	0.030682052
228	0x3d454bd9	0.048168037
229	0xbcbea4b3	-0.023271894
230	0x3d5c2e1a	0.053754903
231	0xbd3ed4b2	-0.04658956
232	0xbbbdf5a6	-0.005797106
233	0x3d0306a2	0.031988747
234	0xbc9bc4af	-0.019014684
235	0x3c4ad390	0.012379542
236	0xbcafe7be	-0.021472808
237	0xbca99970	-0.020703048
238	0x3c700a89	0.014650949
239	0x3cad5f63	0.021163648
240	0x3bda0a3b	0.0066540516
241	0x3c60b55e	0.013715116
242	0xbcd2f1d6	-0.025750082
243	0xbb8d7daf	-0.004317961
244	0xbc6339ec	-0.01386879
245	0xbcde4814	-0.027133979
246	0x3c16bb52	0.009199934
247	0x3c160d95	0.009158512
248	0xbd14e9c7	-0.03635576
249	0x3cd0ffa4	0.025512524
250	0xbcc4af35	-0.024009326
251	0x3d191324	0.03737177
252	0xbcc44a4d	-0.02396121
253	0xbd3476ae	-0.044058494
254	0xbce87927	-0.028378082
255	0xbbf1a1e1	-0.007374034

model.layers.0.self_attn.q_proj.lora.B.weight f4 [512, 8]
0	0xbbafaedb	-0.0053614206
1	0x3cbea309	0.0232711
2	0xbc256f3b	-0.01009732
3	0x3c4a23ef	0.012337669
4	0xbc5ad4a6	-0.013356363
5	0x3c4c8856	0.012483677
6	0x3c499eb3	0.012305903
7	0xba4f9788	-0.0007919003
8	0xbbc27f7f	-0.005935609
9	0x3c66ac1a	0.014079118
10	0xbc8ba2d2	-0.017045412
11	0x3c621887	0.013799793
12	0xbc3acbbd	-0.011401114
13	0xbbf3733e	-0.0074295094
14	0x3c625fd2	0.013816791
15	0x3c4f3f72	0.012649404
16	0xba334edb	-0.00068400585
17	0xbb915375	-0.0044349977
18	0x3ba363ff	0.0049862857
19	0xbbd5ffdd	-0.0065307454
20	0x3ba383ae	0.0049900627
21	0xb9e904a0	-0.0004444467
22	0xba04b970	-0.0005063033
23	0xb99f6fae	-0.0003041005
24	0xb97416ab	-0.00023278098
25	0x3c8fa76c	0.017535888
26	0xbc6a2431	-0.014290855
27	0x3c7d7fe9	0.015472391
28	0xbc3ad228	-0.011402644
29	0xbc77e192	-0.015129464
30	0xbb80a1b4	-0.0039255265
31	0x3a04e5da	0.0005069651
32	0xbb2d6af4	-0.0026461454
33	0x3a97ce58	0.0011581881
34	0x3b02d3ee	0.0019962746
35	0x393f5666	0.00018247365
36	0xbb6ce28c	-0.0036145775
37	0x3bafc8ca	0.005364512
38	0x3b7653a9	0.0037586486
39	0x3a1f2203	0.0006070437
40	0xba916a27	-0.0011094258
41	0xbbdd6665	-0.006756591
42	0x3b08ba9f	0.0020863188
43	0xbba1f371	-0.0049423506
44	0x3bf8c704	0.007592084
45	0x3b956e10	0.0045602396
46	0x3c0ace9d	0.008472112
47	0xbb33405c	-0.0027351594
48	0x3ba5d42a	0.0050606923
49	0x3bf0e690	0.007351704
50	0xbb83a0b3	-0.0040169596
51	0x3be07f55	0.0068511167
52	0xbbbe89ca	-0.0058147656
53	0x3bfa8445	0.0076451623
54	0x3b7a6e17	0.0038212591
55	0xbb94a468	-0.0045362003
56	0x3bd2ce02	0.0064332495
57	0x3b3e7c75	0.0029065881
58	0xbade745e	-0.0016971936
59	0x3afa1c0e	0.0019081847
60	0xbaaff69e	-0.0013424938
61	0x3b8b2f38	0.0042475723
62	0x3c2ce7b2	0.010553287
63	0xbc192fe1	-0.009349794
64	0x3ab1d44a	0.0013567295
65	0xbb715330	-0.0036823265
66	0xba0bcb6f	-0.0005332743
67	0xbaa9b4b8	-0.0012947535
68	0x3ad1da94	0.0016010576
69	0x3b7067fc	0.0036683073
70	0x3c62baca	0.013838479
71	0xbb7be19a	-0.003843403
72	0xbb7e6e5c	-0.0038823104
73	0xbb24acdd	-0.0025127449
74	0xba92ae5e	-0.0011190881
75	0xbb03de36	-0.0020121462
76	0x3b3026b9	0.002687855
77	0x3a6fe5e7	0.00091513846
78	0x3c55a8b2	0.013040708
79	0xbba0f863	-0.0049124225
80	0xbbaa43d1	-0.0051960726
81	0xbbb652fc	-0.0055640917
82	0x3b1b1f8f	0.0023669933
83	0xbb33d9d5	-0.002744307
84	0x3b03eaab	0.0020128887
85	0xba966572	-0.0011474325
86	0xbbcb3ae4	-0.0062020887
87	0x3c06f025	0.008235966
88	0x3bb297a6	0.005450207
89	0xbb3cf6e0	-0.0028833672
90	0x3a065d0c	0.00051255594
91	0xbad291ae	-0.0016065144
92	0x3ad81d2f	0.001648819
93	0x3bb5cbe9	0.0055479896
94	0x3bd96709	0.006634597
95	0xbc2247a4	-0.009904776
96	0x3b8837a4	0.0041570235
97	0x3c21c6fa	0.0098741
98	0xbb97e705	-0.004635694
99	0x3bfc366d	0.0076969177
100	0xbb0c2d83	-0.0021389432
101	0x3a86b938	0.0010278588
102	0xbb566bc7	-0.003271805
103	0xbb0a5ca5	-0.002111235
104	0x3bd8250a	0.0065962123
105	0x3b2df655	0.002654453
106	0xbb9b2e56	-0.0047357483
107	0x3b1b6141	0.002370909
108	0xbab3b840	-0.0013711527
109	0x3bf1e0e6	0.0073815463
110	0xba15bb27	-0.0005711787
111	0xbc01ba5d	-0.007917968
112	0xbc643889	-0.013929495
113	0xbb7952e8	-0.00380438
114	0x3b02ab3c	0.001993849
115	0xbb3de93b	-0.0028978128
116	0x3b87ee94	0.004148314
117	0xbbd371cc	-0.0064527746
118	0x3bb44a0f	0.0055019925
119	0x3bb97f51	0.0056609293
120	0x3b44d078	0.0030031484
121	0x39905eed	0.00027536546
122	0x3b5a4613	0.0033305928
123	0xbb855ceb	-0.0040699146
124	0x3abc90df	0.0014386437
125	0xbbe84ba2	-0.0070890943
126	0xbc2aa2bf	-0.010414778
127	0x3c099c22	0.008399041
128	0xbb1399b8	-0.0022522043
129	0x3b59f78a	0.0033259117
130	0xbbc081e2	-0.0058748582
131	0x3bbd3b57	0.005774896
132	0xbb4efadd	-0.0031582632
133	0x3a2f53a9	0.00066881865
134	0x3bf8d3f6	0.007593627
135	0x3b8eb4e4	0.00435506
136	0xbb5f1765	-0.0034041044
137	0xbb3e546c	-0.0029042019
138	0xbbb4efda	-0.0055217566
139	0x3b806fd1	0.0039195796
140	0xb9eac6d5	-0.000447801
141	0x3b891397	0.0041832435
142	0x3c4ab2a1	0.01237169
143	0x3b28bf69	0.0025748855
144	0xbc460c95	-0.012087961
145	0x3a843fa9	0.0010089773
146	0xbbe4b1eb	-0.0069792173
147	0x3b3866fc	0.0028137555
148	0x3b836bad	0.0040106387
149	0x3bf27f45	0.0074004256
150	0xb987ffbf	-0.00025939752
151	0xbc06542d	-0.00819878
152	0xbbca0863	-0.0061655506
153	0xb9e07214	-0.00042809604
154	0x38e45901	0.000108884655
155	0x3a4c0c96	0.0007783858
156	0x38f71b5b	0.00011782973
157	0xbbac3a0c	-0.005255943
158	0xb9be19c8	-0.00036258833
159	0x3be8eed4	0.0071085487
160	0x3aeb0c57	0.0017932755
161	0x3c0a0fef	0.00842665
162	0xbbfd6260	-0.0077326745
163	0x3bee45b2	0.007271492
164	0xbb981149	-0.0046407324
165	0x3b1d1f78	0.0023975056
166	0x3b312cc8	0.0027034748
167	0x3b1db5d9	0.0024064688
168	0x3c271c60	0.010199636
169	0x3be36ce9	0.0069404733
170	0xbb99a5ac	-0.004688939
171	0x3ba4a23d	0.005024223
172	0xbba47f5d	-0.0050200657
173	0x3b879344	0.0041374285
174	0xbb5fb593	-0.0034135326
175	0xbba678ec	-0.005080333
176	0xbbbe7226	-0.0058119474
177	0x3b234ff7	0.002491949
178	0x3ab7e3f5	0.0014029728
179	0x39079dac	0.0001293334
180	0xb9b72ca8	-0.00034937751
181	0xbbd99ac0	-0.006640762
182	0x3a600ce1	0.0008546841
183	0x3c4b334d	0.012402368
184	0x3a59fd19	0.00083156076
185	0x3c3a3e84	0.011367444
186	0xbc805c7f	-0.015669106
187	0x3c636e81	0.013881327
188	0xbc099903	-0.008398297
189	0x3c2a6e47	0.010402269
190	0x3c2404a6	0.010010874
191	0x3be3eca2	0.006955699
192	0x3b66d4b7	0.0035222003
193	0xbbca5120	-0.0061742216
194	0x3b704667	0.0036663057
195	0xbbe5d226	-0.007013577
196	0x3b7ed15a	0.0038882107
197	0xbaf56835	-0.0018723073
198	0xbc02c0ee	-0.007980568
199	0x3b373214	0.0027953433
200	0xbb75731a	-0.003745264
201	0xbb784172	-0.0037880805
202	0x3b0ffde9	0.002197141
203	0xb9971b1d	-0.00028821165
204	0x3add05db	0.0016862707
205	0x3bc3fdb2	0.0059811706
206	0x3c29499e	0.010332493
207	0x38be99d1	9.0885565e-05
208	0xb98f8130	-0.00027371338
209	0xb9714c74	-0.00023012032
210	0x3ae01f91	0.0017099251
211	0xbb0246fd	-0.0019878738
212	0x39c58374	0.00037672708
213	0xbbdfa066	-0.006824541
214	0xbc265acf	-0.010153486
215	0x3acd5d14	0.0015667998
216	0x3c1f91f4	0.009739388
217	0x3c9495ac	0.018137775
218	0xbb5108cc	-0.0031896112
219	0x3c4b084a	0.012392113
220	0xbc61d4b3	-0.013783622
221	0x3c10a4e4	0.0088283755
222	0xbbfb534b	-0.0076698414
223	0xbc333406	-0.010937696
224	0x3be5df2d	0.00701513
225	0x3b425a0a	0.0029655718
226	0xbb0c9c1a	-0.0021455348
227	0x3b5a0a26	0.003327021
228	0xbaeec129	-0.0018215525
229	0x3baf2b87	0.005345765
230	0x3bd8b58a	0.006613438
231	0xbbcfc3db	-0.0063404865
232	0x3b794b00	0.0038039088
233	0x3c08f715	0.00835969
234	0xbba48e17	-0.0050218212
235	0x3be5b899	0.007010531
236	0xbbc45157	-0.005991142
237	0x3bf1d6c3	0.007380338
238	0x3b7da6de	0.0038704197
239	0xbb198d39	-0.0023430123
240	0xbac8ad49	-0.0015310432
241	0x3bd14f5f	0.0063876356
242	0xbaf99508	-0.0019041607
243	0x3b832ef7	0.0040034014
244	0xbb1e2f67	-0.002413714
245	0x3a6b372d	0.00089727604
246	0x3bc3befb	0.0059736944
247	0xbbd992c1	-0.006639809
248	0x3b430da3	0.0029762767
249	0xbba48af1	-0.005021446
250	0x3be2272a	0.0069016414
251	0xbc122a02	-0.008921148
252	0x3bfdbd6c	0.007743528
253	0xba524f4f	-0.0008022682
254	0xbba979e8	-0.005172003
255	0x3b4d0395	0.0031282653

model.layers.0.self_attn.o_proj.lora.A.weight f4 [8, 512]
0	0xb8b00820	-8.3938474e-05
1	0xbd1e0669	-0.038580332
2	0xbd0e477f	-0.034736153
3	0x3bc57a5b	0.006026549
4	0xbc4face8	-0.012675501
5	0x3d121c5b	0.035671573
6	0xbd2bbb49	-0.041926656
7	0xbc3ef46e	-0.011654956
8	0x3c27c271	0.01023923
9	0x3cb6ab56	0.022298496
10	0xb9fe674c	-0.00048523617
11	0x3b38dd67	0.0028208138
12	0x3d382cc8	0.04496458
13	0xbd5292f6	-0.051409684
14	0x3d1eb9b9	0.038751338
15	0x3c547b5d	0.012968865
16	0x3d3c40e2	0.045960315
17	0xbd799df7	-0.060941663
18	0xbb47370d	-0.0030397803
19	0xbdd7db17	-0.10539835
20	0x3d6dc983	0.058053505
21	0xbda32316	-0.079656765
22	0x3d61fb9f	0.055171605
23	0x3cc4506a	0.023964126
24	0xbcf9d8db	-0.030498913
25	0xbc53f3fd	-0.012936589
26	0x3dbebe34	0.09313622
27	0xbd15db9c	-0.03658639
28	0x3d076ca1	0.03306258
29	0x3d964bac	0.07338652
30	0x3db6dc21	0.08928705
31	0xbc942eef	-0.018088786
32	0xbdfa4b8c	-0.12221441
33	0xbc1f5212	-0.009724157
34	0x3c84028e	0.0161145
35	0x3b8840ec	0.00415813
36	0x3b9b7fe5	0.004745471
37	0xbcb6cc73	-0.022314286
38	0xbc8fe0fc	-0.017563336
39	0x3c1c04e5	0.009522651
40	0xbcf956f4	-0.03043697
41	0x3d1d209d	0.03836118
42	0xbcf3d131	-0.029762836
43	0x3d19ce65	0.03755035
44	0xbc12094b	-0.008913348
45	0xbd514111	-0.051087443
46	0x3cd226f5	0.025653342
47	0xbd91867f	-0.07105731
48	0x3beef14b	0.007291948
49	0x3d7de0de	0.06198203
50	0x3d367c01	0.044551853
51	0xbcf439a6	-0.029812645
52	0x3b8838c2	0.0041571567
53	0x3c9ddbf6	0.019269925
54	0xbdd34ff1	-0.10317982
55	0x3c9f3db5	0.019438604
56	0xbacc2486	-0.001557485
57	0xbc0e773b	-0.008695419
58	0xbd45bbbe	-0.048274748
59	0xbd1bc1cd	-0.03802662
60	0xbcbb6ca8	-0.02287896
61	0x3c5d3298	0.013500832
62	0xbc6e008a	-0.014526496
63	0x3da64f9f	0.08120655
64	0x3c1a2c05	0.009409909
65	0xbd85c6e3	-0.06532075
66	0xbdb39bf6	-0.087699816
67	0xbca0b07f	-0.01961541
68	0xbaec28fc	-0.0018017585
69	0x3c896761	0.016772928
70	0xbd310475	-0.04321714
71	0xbd44ff0d	-0.048094798
72	0xbc0c41ba	-0.008560592
73	0x3d302b89	0.04301027
74	0xbcb46040	-0.022018552
75	0xbcb57b3b	-0.022153487
76	0x3d132825	0.035926957
77	0xbdadbc34	-0.084831625
78	0xbca1d005	-0.019752512
79	0x3d4ab452	0.049488373
80	0x3c9bac35	0.019003013
81	0xbda8a93e	-0.082354054
82	0x3bfcb68d	0.0077121914
83	0xbd44fa51	-0.048090283
84	0x3d9aedb8	0.075648725
85	0xbda31a31	-0.0796398
86	0x3c399de4	0.011329148
87	0x3d3988e3	0.04529656
88	0xbce3284c	-0.027729176
89	0xbbca213f	-0.006168514
90	0x3db0ef1b	0.08639356
91	0xbd8867bf	-0.06660413
92	0x3cb700c9	0.022339242
93	0x3d750a20	0.05982411
94	0x3d8606ae	0.06544243
95	0x3d13b16e	0.036057882
96	0xbdca1357	-0.0986697
97	0x3c95c27e	0.018281218
98	0x3cabf7a6	0.020992111
99	0x3c07732b	0.008267204
100	0xbcbccdff	-0.023047445
101	0xbc64f743	-0.013974967
102	0xbcd6939e	-0.026193436
103	0xbb8d26f5	-0.0043076226
104	0x3c8343d8	0.016023561
105	0x3d3f2f96	0.04667624
106	0xbc57d4aa	-0.013173262
107	0x3c6be11c	0.014396932
108	0xbbd42c74	-0.006475026
109	0xbdb47fea	-0.0881346
110	0x3ac83fe7	0.0015277833
111	0xbd7aa54e	-0.061192803
112	0x3d027bb3	0.03185625
113	0xbcd3a5cd	-0.025835896
114	0x3d0b0589	0.033940826
115	0xbcc54ff4	-0.024085976
116	0x3da6f26e	0.081517085
117	0x3d1c06db	0.038092475
118	0xbd8341d9	-0.06409044
119	0xbc594b96	-0.01326265
120	0xbdbbe1e1	-0.09173942
121	0x3d4bc452	0.049747773
122	0xbd041e47	-0.032255437
123	0xbd4b884a	-0.049690522
124	0x38b6b447	8.7120156e-05
125	0x3cf27a73	0.029599404
126	0xbd21c376	-0.039493047
127	0x3df04ef6	0.117338106
128	0xbbeb5f3a	-0.0071829828
129	0xbd925785	-0.07145599
130	0xbddede63	-0.10882261
131	0xbca48933	-0.020084953
132	0xbc104f86	-0.008808022
133	0x3c0ec157	0.008713088
134	0xbd22c4b3	-0.03973837
135	0x3854282f	5.0582163e-05
136	0x3b22a80c	0.0024819402
137	0x3be1c6b1	0.006890141
138	0x3ae50fef	0.0017476062
139	0x3d6e3fe5	0.058166403
140	0x3c480e06	0.012210375
141	0xbd291caa	-0.0412871
142	0x3d731929	0.059350166
143	0x3ccf4a96	0.02530412
144	0xbc7755f1	-0.015096174
145	0xbd8d9132	-0.069124594
146	0xbca06df3	-0.019583678
147	0xbdbc1aee	-0.09184824
148	0x3d966ab1	0.073445685
149	0xbdb16c2a	-0.08663209
150	0x3be48b49	0.006974612
151	0x3d8c1719	0.06840343
152	0xbcae4bd2	-0.021276388
153	0xbcfaf466	-0.030634116
154	0x3d9003f8	0.07032007
155	0xbcc941d7	-0.024567528
156	0x3d968079	0.07348723
157	0x3c3e7d4b	0.011626552
158	0x3daad5b7	0.08341544
159	0xbc8b8328	-0.017030314
160	0xbdc22dd7	-0.094813995
161	0xbd01b620	-0.03166783
162	0xb9f72c1e	-0.0004714438
163	0x3d92f27a	0.07175155
164	0x3bff61b0	0.0077936277
165	0x3d1d54eb	0.038411062
166	0xbd35fc9d	-0.044430364
167	0x3a9ee48a	0.0012122553
168	0xbd3b1e2c	-0.04568307
169	0x3d2dcad0	0.042429745
170	0xbca02c0e	-0.019552257
171	0x3ca842a5	0.020539591
172	0xbaf26e5c	-0.0018496024
173	0xbd8f2ece	-0.06991349
174	0xbc7eb6c9	-0.015546509
175	0xbd2a887c	-0.041634068
176	0x3cae0660	0.021243274
177	0xbcdc05de	-0.026858266
178	0x3d4e79aa	0.050408997
179	0xbd0c0593	-0.034185003
180	0x3d531fbe	0.051543944
181	0xbce0bada	-0.027432848
182	0xbcd22e0b	-0.02565672
183	0xbcb3a7cf	-0.021930603
184	0xbde79e6d	-0.11309514
185	0x3d552093	0.05203302
186	0xbdbb1247	-0.091343455
187	0xbd58ab6d	-0.05289786
188	0xbcf1117a	-0.029427279
189	0x3bd22526	0.00641312
190	0xbd68d9b4	-0.056848243
191	0x3ddc112f	0.10745465
192	0xbbfabe08	-0.007652048
193	0xbd799c69	-0.06094018
194	0xbda85cca	-0.08220823
195	0xbdcdab52	-0.100424424
196	0x3ceb71b0	0.028740734
197	0x3c8a56d1	0.0168871
198	0xbdd786c8	-0.10523754
199	0xbdcef5e3	-0.10105493
200	0xbcd8c3f3	-0.026460623
201	0x3c97ca68	0.018529132
202	0xbc1f6107	-0.009727723
203	0x3d029a6c	0.03188555
204	0x3dd9edc1	0.10641051
205	0xbdd043e3	-0.10169198
206	0x3d539b1e	0.051661603
207	0x3c8b1353	0.016976988
208	0x3cb12e34	0.021628477
209	0xbd39bf4c	-0.04534845
210	0xbd07edc6	-0.033185743
211	0xbdd4b11d	-0.10385344
212	0x3d7b2174	0.0613112
213	0xbdd44e55	-0.10366503
214	0x3bfa2404	0.007633688
215	0x3bba5da5	0.005687433
216	0xbc7c00f4	-0.015381087
217	0xbce79ac9	-0.02827205
218	0x3d95059e	0.07276462
219	0x3bd86d8d	0.0066048563
220	0x3d415c7b	0.047207337
221	0x3da386a5	0.07984666
222	0x3e02af55	0.12762196
223	0xb9b2f09e	-0.0003413008
224	0xbe15a6f6	-0.14614472
225	0x3afd4f16	0.0019325938
226	0x3d044dd6	0.032300793
227	0x3d74bab1	0.059748355
228	0xbc86c865	-0.016452977
229	0xbb965f6a	-0.004589011
230	0xbd387e05	-0.045042057
231	0x3d58a2f6	0.052889787
232	0xbd1d0af3	-0.03834052
233	0x3a284eb5	0.00064204197
234	0xbb3bfa85	-0.0028683257
235	0xbb89300c	-0.004186636
236	0xbcb112b0	-0.021615356
237	0xbd862d7b	-0.065516435
238	0x3d7cfa12	0.061761923
239	0xbdeef413	-0.11667647
240	0xbbdf8ed3	-0.006822446
241	0x3c21a715	0.009866496
242	0x3a15b25f	0.0005710478
243	0x3c2164bf	0.00985068
244	0x3d7898f4	0.060692742
245	0xbcc830aa	-0.024437267
246	0xbd8a3c49	-0.0674978
247	0xbd6224da	-0.055210926
248	0xbdb664c4	-0.08905938
249	0x3bc9cb17	0.0061582434
250	0xbdb47cd5	-0.08812872
251	0xbd103311	-0.03520495
252	0xbd5f5145	-0.054520864
253	0x3b5e5f5c	0.003393135
254	0xbc9f1dcf	-0.019423394
255	0x3e2b3e16	0.16722903

model.layers.0.self_attn.o_proj.lora.B.weight f4 [512, 8]
0	0xbc523aa2	-0.012831362
1	0x3c750618	0.014955066
2	0xbccd4a64	-0.025059886
3	0x3c97e2f5	0.018540839
4	0x3c77a611	0.015115277
5	0xbcdb6306	-0.026780616
6	0x3c8afa1b	0.016964963
7	0xbc615e35	-0.013755371
8	0xbc4ffb5a	-0.012694204
9	0x3a987f67	0.0011634649
10	0xba23b930	-0.00062455516
11	0xbc029763	-0.007970664
12	0x3acecd2a	0.0015777696
13	0x3ca5f42a	0.020258028
14	0x3c5d2b1c	0.013499048
15	0xbb832161	-0.004001782
16	0xba8acf3f	-0.0010590329
17	0xbcbb4fb3	-0.022865152
18	0x3c8af961	0.016964616
19	0x3bb54c42	0.0055327723
20	0x3ce921cc	0.028458498
21	0xbb39cf77	-0.0028352418
22	0x3bb3d7d2	0.0054883743
23	0x3c806f73	0.015678143
24	0xbbcb15d9	-0.006197673
25	0xbc84b46b	-0.016199311
26	0xbbd2147c	-0.0064111333
27	0x3a324d96	0.00068017223
28	0xbb86c029	-0.0041122627
29	0xbcc66b14	-0.02422098
30	0x3ca026d7	0.01954977
31	0x399c9335	0.00029864316
32	0xbcc24c0a	-0.023717899
33	0xbbaf4326	-0.005348581
34	0xbceffb68	-0.029294685
35	0x3c3d22cc	0.011543941
36	0x3c20c2df	0.009812086
37	0x3bc27009	0.005933766
38	0x3d15c2be	0.036562674
39	0xbc287eae	-0.010284109
40	0xbbc1960b	-0.005907779
41	0x3be00d84	0.0068375487
42	0xbc03ab6c	-0.008036476
43	0xbc1a5e63	-0.009421918
44	0x3d00daa2	0.031458504
45	0x3d2be27d	0.041964043
46	0x3d00d049	0.031448636
47	0xbc7027df	-0.0146579435
48	0x3c93e3e9	0.018053012
49	0x3a6565cf	0.00087508274
50	0xbbad6aea	-0.005292286
51	0x394df918	0.00019643118
52	0x3c94d602	0.018168453
53	0xbc340d95	-0.010989566
54	0x3bd1c0ae	0.006401143
55	0xbc3d74e8	-0.011563517
56	0x3c304899	0.010759496
57	0xbc20e50e	-0.009820236
58	0xbce929f1	-0.028462382
59	0x3b702419	0.003664261
60	0xbc2e8439	-0.0106516415
61	0xbb810539	-0.00393739
62	0x3ca4be1c	0.020110182
63	0xbb94fd61	-0.0045468067
64	0xbc376779	-0.011194103
65	0x3cf6f153	0.03014437
66	0x3bef1b52	0.007296958
67	0xbc1c520f	-0.009541049
68	0x3aec1c7e	0.0018013862
69	0x3c2b45da	0.010453666
70	0x3bd259dc	0.0064194035
71	0xbcdecdd6	-0.02719776
72	0xbbdf5779	-0.0068158475
73	0x3cbee985	0.02330471
74	0xbb76680c	-0.0037598638
75	0x3c3a1efb	0.011359925
76	0x3c4f46e8	0.012651183
77	0xbc4d41ec	-0.012527924
78	0x3b954e7b	0.0045564747
79	0xbc22b60d	-0.0099311
80	0x3bb872f6	0.005628939
81	0x3b5890b2	0.003304523
82	0x3c120bde	0.008913962
83	0xbc48495d	-0.012224522
84	0x3c8fa30e	0.017533805
85	0x3c20513f	0.009784996
86	0xbc073727	-0.008252895
87	0x3c7ad99b	0.01531067
88	0xbc61d563	-0.0137837855
89	0x3c02c946	0.007982558
90	0xbc09b70c	-0.008405458
91	0x39a6fbce	0.00031849596
92	0x3c917800	0.017757416
93	0x3bf36053	0.007427254
94	0x3d291bcf	0.041286286
95	0xbc835217	-0.016030354
96	0xbc819f2e	-0.015822973
97	0x3c6f52d1	0.014607147
98	0xbcbc2294	-0.022965707
99	0xbc5ca3e9	-0.013466814
100	0xbcf0f943	-0.029415732
101	0x3bf41993	0.0074493377
102	0xb90c9bee	-0.00013409529
103	0xbca3a87f	-0.019977806
104	0x3cb59cd1	0.022169502
105	0xbb806352	-0.00391809
106	0x3b143a61	0.0022617804
107	0xbc542ac4	-0.012949649
108	0xbbfead0f	-0.007772095
109	0x3afce2e6	0.0019293695
110	0xbc3f44c3	-0.011674109
111	0x3c855acb	0.016278645
112	0x3cdf5a1e	0.02726465
113	0x3bd8b17c	0.0066129547
114	0x3c85a722	0.016315047
115	0x3b8878e0	0.0041648
116	0xbd31c8a8	-0.04340425
117	0xbb8c289c	-0.004277302
118	0xbc8d1fef	-0.017227141
119	0xbc7a4c3c	-0.015276965
120	0xbb677a0c	-0.0035320548
121	0x3cc14b1d	0.023595387
122	0x3c3ccb6d	0.01152311
123	0x3c0bfa07	0.008543498
124	0x3c13e0f4	0.009025801
125	0x3c57d5f2	0.013173567
126	0x398d189d	0.00026911954
127	0xbd182382	-0.037143238
128	0xba01d7ae	-0.0004953098
129	0xbb9a828c	-0.0047152694
130	0xbc1805ba	-0.009278709
131	0xbb8f47fe	-0.004372596
132	0xbd11a6e4	-0.03555955
133	0x3c408385	0.011750107
134	0x3c1416b6	0.009038618
135	0xbb171fe8	-0.002305979
136	0x3b6c5d36	0.00360663
137	0x3c3c00a5	0.011474763
138	0xbc29dec2	-0.010368051
139	0xbadd8df7	-0.0016903271
140	0xbbe845e1	-0.0070884083
141	0xba31f0aa	-0.0006787876
142	0xbc2e956d	-0.010655743
143	0xbc089152	-0.008335428
144	0x3bda6d2e	0.0066658473
145	0xbd297ad2	-0.041376896
146	0x3be30f25	0.0069292956
147	0x3cb23e85	0.021758327
148	0x3ce7c035	0.028289894
149	0xbccd7bdc	-0.025083475
150	0xbc35b3bb	-0.011090214
151	0xbc555c6d	-0.013022524
152	0xbbdab7f4	-0.006674761
153	0x3b8c2991	0.004277416
154	0x3c15cc72	0.009142982
155	0xbba22c67	-0.004949141
156	0xbcc41706	-0.02393676
157	0x3c97f94d	0.018551493
158	0xb9560a42	-0.00020412452
159	0xbc2166e2	-0.009851189
160	0x3b9494a2	0.00453432
161	0xbc0d8723	-0.008638176
162	0x3c238948	0.009981461
163	0xbbcb98f4	-0.006213302
164	0x3c776913	0.015100735
165	0xbbf2287d	-0.0073900805
166	0x3c7ca315	0.015419741
167	0x3c4fe06a	0.012687782
168	0x3cdec395	0.02719287
169	0xbc052a11	-0.008127705
170	0x3c8b7e26	0.017027926
171	0x3b6f68bf	0.003653094
172	0x3ceee424	0.02916152
173	0xbaa24fcb	-0.0012383399
174	0xbc4c7a9e	-0.012480406
175	0x3c679c31	0.01413636
176	0xbc29a1b0	-0.010353491
177	0xbc8bdecd	-0.017074013
178	0xbcc9db9f	-0.024640856
179	0x3d02b9a9	0.03191534
180	0xbca8968f	-0.020579604
181	0xbce43573	-0.027857518
182	0x3c1baae6	0.009501195
183	0xbcb74278	-0.022370562
184	0x3ca80b52	0.02051321
185	0xbbba5d6f	-0.0056874077
186	0xbc4918d0	-0.012273982
187	0x3b158644	0.0022815624
188	0xbb8fdf1e	-0.0043906113
189	0xbd0083dd	-0.031375755
190	0x3be2377b	0.0069035864
191	0xbd2d198e	-0.0422607
192	0x3c481e74	0.012214292
193	0x3aef5ba2	0.0018261562
194	0x3c5f1eb8	0.013618164
195	0xbc15f86a	-0.009153465
196	0x3c77b3d0	0.015118554
197	0x39e8b134	0.00044382515
198	0x3c8432cd	0.016137505
199	0x3c823d70	0.015898436
200	0x3c9b1b7e	0.018934008
201	0xbca9074f	-0.020633368
202	0x3cfa0ca1	0.0305236
203	0x3b9bdacb	0.0047563068
204	0x3c96423e	0.018342134
205	0xbc94daa5	-0.018170664
206	0x3ccf0437	0.025270564
207	0x3cb5a2e6	0.022172403
208	0xbcaf4e3a	-0.021399606
209	0x3bb94cca	0.005654906
210	0xbcf7085a	-0.03015535
211	0xbb08982f	-0.0020842662
212	0xbc7b3cee	-0.015334351
213	0xbbcca16c	-0.006244829
214	0xbad76477	-0.0016433139
215	0x3d13c52b	0.036076706
216	0x3ccb3ee0	0.024810255
217	0xbc57e6c6	-0.013177579
218	0x3cd88446	0.02643026
219	0x3bd28ba3	0.0064253374
220	0xbb989c46	-0.004657301
221	0xbc19bc89	-0.009383329
222	0xbc186e32	-0.009303616
223	0x3c7e3e4d	0.015517783
224	0x3c7f4c18	0.015582107
225	0xbbaf49ec	-0.0053493883
226	0xbc2b2848	-0.0104466155
227	0xbc19125d	-0.009342757
228	0x3d75583d	0.059898604
229	0x3c931626	0.017954897
230	0x3d0f4473	0.034977388
231	0xbca4f5a4	-0.020136662
232	0x3c9f6f24	0.019462176
233	0xbc68374a	-0.014173338
234	0x3b4a5555	0.0030873616
235	0xbb8e9bd5	-0.0043520727
236	0xbce7c7c7	-0.028293503
237	0x3a2718ba	0.0006374229
238	0xbc6b440c	-0.014359485
239	0xbd4d3bf8	-0.05010602
240	0xbabf8a9e	-0.0014613455
241	0xbc75cb5e	-0.0150021
242	0x3ce2ae8c	0.027671121
243	0x3aeaa32a	0.001790141
244	0xbcf2ceec	-0.029639684
245	0xbb904889	-0.004403178
246	0xbcb77975	-0.022396782
247	0x3c093145	0.008373563
248	0xbcecbd69	-0.028898912
249	0xb8bc19c9	-8.9693414e-05
250	0xbd1c3d3c	-0.038144335
251	0xbbeacffd	-0.0071659074
252	0x3c35dccc	0.011100005
253	0xbbdc0b14	-0.006715188
254	0x3a4f4a61	0.00079075067
255	0xbcd2019d	-0.025635535

model.layers.1.self_attn.q_proj.lora.A.weight f4 [8, 512]
0	0x3be1169b	0.00686915
1	0x3c6c55d8	0.014424764
2	0x3cc6e7f7	0.024280531
3	0x3d191c5a	0.037380554
4	0x3cbe2c19	0.023214387
5	0x3c85e781	0.016345741
6	0xbc9ce425	-0.019151757
7	0x3dfdd5be	0.12394284
8	0xbdb29a6d	-0.08720861
9	0x3d2f496c	0.04279463
10	0xbbf6d333	-0.007532501
11	0x3d7d7b2d	0.061885048
12	0x3cb737a9	0.022365408
13	0xbc0d631d	-0.0086295875
14	0xbc0281c8	-0.007965513
15	0x3d4b0b28	0.049571186
16	0xbccc6266	-0.024949264
17	0xbd2d02ec	-0.042239115
18	0x3d440a1f	0.047861215
19	0x3d4b74c1	0.049671892
20	0xbccaaedb	-0.02474158
21	0x3cfc86d9	0.03082602
22	0x3c99779c	0.018733792
23	0x3d1989e6	0.037485026
24	0xbd0b8860	-0.034065604
25	0xbcea36e0	-0.02859062
26	0x3cfaed12	0.030630622
27	0x3cab8018	0.020935103
28	0xbd65d249	-0.056108747
29	0x3af3b16c	0.0018592305
30	0xbd92d58a	-0.071696356
31	0xbd5c59be	-0.053796522
32	0x3b8d3eae	0.0043104505
33	0xbd0cf678	-0.03441474
34	0x3cb5539b	0.022134593
35	0x3d2aadf0	0.041669786
36	0xbd66baed	-0.05633061
37	0xbc988d17	-0.018621964
38	0x3d847688	0.064679205
39	0x3d7f7f42	0.062377222
40	0x3d678908	0.056527168
41	0xbc4d50e4	-0.012531493
42	0xbc1ac3ae	-0.009446068
43	0x3cee4190	0.029083997
44	0x3ce57a86	0.028012525
45	0x3ca259ee	0.019818272
46	0x3c18fac0	0.009337127
47	0x3d1d606d	0.038422037
48	0x3d221b41	0.039576773
49	0xbca8703e	-0.020561334
50	0x3d5c6d5c	0.05381523
51	0xbcc138a7	-0.023586584
52	0xbcb6cf61	-0.022315683
53	0x3c775446	0.015095776
54	0xbd3976ef	-0.04527944
55	0xbb3364ec	-0.0027373387
56	0x3c70bdad	0.01469366
57	0x3cbc8698	0.023013398
58	0x3d565710	0.052329123
59	0x3d38069c	0.04492818
60	0x3d7e5ece	0.06210213
61	0x3d96f754	0.07371393
62	0x3cdc61e3	0.026902145
63	0x3b9a4bfa	0.004708764
64	0xbcd974b7	-0.026544912
65	0xbcc9e86d	-0.024646962
66	0x3d5fb853	0.054619145
67	0x3c08d0ba	0.008350546
68	0xbcaf96f7	-0.02143429
69	0x3ba8818d	0.005142397
70	0xbd0724cb	-0.032994073
71	0xbd3fd78e	-0.04683643
72	0x3b6219a7	0.0034500153
73	0xbd2f2582	-0.04276038
74	0xbd1fd75f	-0.039023753
75	0x3b87635b	0.004131717
76	0xbd3e11f1	-0.04640383
77	0xbbb7dd13	-0.005611071
78	0xbc951637	-0.01819907
79	0x3a5b6d4b	0.0008370473
80	0x3cc22392	0.023698602
81	0x3c3dde0d	0.011588586
82	0x3d8ff12b	0.07028421
83	0xbc8330d0	-0.016014487
84	0xbd5900a9	-0.052979145
85	0x3ce25e10	0.027632743
86	0xba22c66b	-0.0006209376
87	0x3d6bf1c2	0.057603605
88	0xbcd13b9e	-0.025541123
89	0xbc2e7b60	-0.010649532
90	0x3acd70fb	0.001567393
91	0x3c552198	0.013008498
92	0x3d9f0420	0.07764459
93	0x3a7326fc	0.00092755235
94	0xbd4ba3fa	-0.049716927
95	0x3d75a713	0.059973788
96	0x3c3ccaa9	0.011522927
97	0xba8e2f47	-0.001084783
98	0xbab44721	-0.0013754108
99	0xbd2b179e	-0.04177057
100	0x3c273fab	0.010208051
101	0x3c95358d	0.018214012
102	0x3d863577	0.06553166
103	0xbc229bf6	-0.009924879
104	0x3d0d6c28	0.034526974
105	0x3d3d5933	0.046227645
106	0x3afd0ccd	0.0019306183
107	0x3ca42627	0.020037724
108	0xbd74e09e	-0.059784524
109	0x3ceb481a	0.028720904
110	0xbb249da4	-0.0025118375
111	0xbc77a0cd	-0.0151140215
112	0x3d4c3a30	0.04986018
113	0xbc17af6c	-0.009258132
114	0x3d302450	0.04300338
115	0xbcdaa69f	-0.02669078
116	0x3bf58123	0.007492201
117	0x3d39876d	0.045295168
118	0xbd0ace34	-0.033888057
119	0xbc6ba63b	-0.014382894
120	0xbd0fd83a	-0.03511832
121	0x3bd6df00	0.0065573454
122	0x3d260698	0.040533632
123	0xbd598b41	-0.05311132
124	0xbd14ad3b	-0.036298018
125	0x3d3d6904	0.04624273
126	0x3ce9be54	0.028533138
127	0x3c672c85	0.014109735
128	0x3cf5564f	0.029948382
129	0xbc7409c3	-0.0148949055
130	0xbd1f1218	-0.038835615
131	0x3d455ce9	0.04818431
132	0x3bfe0105	0.0077515864
133	0xbd59341b	-0.053028207
134	0xbb60aba5	-0.0034281996
135	0x3b99b8b3	0.0046912073
136	0x3d503215	0.050829012
137	0x3d3e01a5	0.046388287
138	0x3d3c77fd	0.046012867
139	0xbc8e89fb	-0.017399779
140	0xbd93d49e	-0.07218288
141	0xbcad371e	-0.021144446
142	0xbc216d4a	-0.009852717
143	0xbcc3db53	-0.023908293
144	0x3cd85467	0.026407434
145	0xbc34f5b8	-0.011044912
146	0x3d7d0517	0.061772432
147	0xbc0e26df	-0.00867626
148	0xbd2cd8a3	-0.04219879
149	0xbd64ff20	-0.05590737
150	0xbd3ab755	-0.045584995
151	0x3b15c97e	0.0022855694
152	0xbc8e94ba	-0.017404903
153	0x3d16b712	0.036795683
154	0x3b1e960c	0.0024198322
155	0x3ce80cab	0.028326353
156	0x3c31ecde	0.010859696
157	0x3bbe5837	0.005808856
158	0xbcf8ebb8	-0.030385837
159	0x3cf02292	0.02931336
160	0xbd087b7f	-0.0333209
161	0x3c00024e	0.0078130495
162	0xbd0abb9c	-0.033870324
163	0xbcd392d5	-0.02582685
164	0xbd308ee1	-0.04310501
165	0x3dba8327	0.091070466
166	0x3cb8f6b2	0.022578571
167	0xbc892930	-0.016743273
168	0x3d47e3bb	0.048801165
169	0x3cbd0115	0.023071805
170	0x3cad3dd3	0.021147644
171	0xbcd3bcb3	-0.025846815
172	0x3c80f337	0.015740974
173	0xbcaf555c	-0.021403007
174	0xbcbff542	-0.023432378
175	0x3c0aee3f	0.008479654
176	0x3d094d47	0.033520963
177	0xbd27c5d6	-0.040960155
178	0xbd0fd77a	-0.035117604
179	0xbd3345dd	-0.0437678
180	0xbd5904aa	-0.052982964
181	0x3b3220db	0.0027180228
182	0xb9a8b8b7	-0.0003218108
183	0x3cb71e70	0.02235338
184	0x3ceca595	0.02888755
185	0xbc22f1ae	-0.009945316
186	0xbd576703	-0.052588474
187	0xbcd32147	-0.025772704
188	0x3d73b370	0.059497297
189	0xbc0de626	-0.008660829
190	0x3b4a4b31	0.0030867571
191	0xbd1299c2	-0.035791166
192	0x3d4685d7	0.048467483
193	0xbd1f6281	-0.0389123
194	0x3c08cfaa	0.008350292
195	0x3d4e0077	0.050293412
196	0xbcf618be	-0.030041095
197	0xbd3a127f	-0.045427795
198	0x3bb39c5a	0.005481285
199	0x3d8ebe51	0.06969894
200	0xbcb4ef4d	-0.022086764
201	0x3d323c4a	0.043514527
202	0x3d2e4944	0.04255034
203	0x3d12754d	0.035756398
204	0x3bff118f	0.0077840756
205	0x3d96e6fb	0.07368275
206	0x3d86a9ff	0.06575393
207	0x3bf51680	0.007479489
208	0x3d4e0925	0.05030169
209	0x3d50eee5	0.051009078
210	0x3c6f83ef	0.014618858
211	0xbd9d53e0	-0.076820135
212	0xbd1ccd1a	-0.038281538
213	0xbda4ec6f	-0.08052909
214	0x3be44f33	0.006967449
215	0x3d2d8add	0.04236876
216	0x3c9cd107	0.01914264
217	0x3b79fcfa	0.003814517
218	0xbd111c88	-0.0354276
219	0x3da76012	0.08172621
220	0xbd4388bd	-0.047737826
221	0x3d005436	0.03133031
222	0x3d613676	0.05498358
223	0xbd5f7a64	-0.05456008
224	0x3c09c8f6	0.008409729
225	0x3afad56a	0.0019137089
226	0xbdb1d327	-0.08682852
227	0xbd155afd	-0.036463726
228	0x3c3f6080	0.011680722
229	0x3ce057ea	0.02738567
230	0x3d36cbf0	0.044628084
231	0x3d14fcca	0.03637389
232	0xbd15b34c	-0.036547944
233	0x3d098797	0.033576574
234	0xbd0ee716	-0.03488835
235	0xbd79c5f1	-0.060979787
236	0xbd10d580	-0.03535986
237	0xbc23c8f9	-0.009996646
238	0x3ce625fc	0.028094284
239	0x3d007f7e	0.031371586
240	0x3cb11681	0.021617176
241	0x3d869722	0.06571795
242	0xbb425c0b	-0.0029656913
243	0x3d084037	0.033264365
244	0x3c382347	0.0112388795
245	0x3c3ebd6e	0.011641843
246	0x3c2efcbd	0.010680375
247	0xbd012d88	-0.031537563
248	0xbd91b888	-0.07115275
249	0xbd83f645	-0.064434566
250	0x3b3a1d7d	0.0028398924
251	0xbc3a06b2	-0.011354135
252	0xbba7b45b	-0.0051179356
253	0x3be597ee	0.007006637
254	0x3cd20dff	0.02564144
255	0xbca081be	-0.019593116

model.layers.1.self_attn.q_proj.lora.B.weight f4 [512, 8]
0	0x3cc9e8cf	0.024647145
1	0x3c58673e	0.013208209
2	0x3c6de3c1	0.014519633
3	0xbcb44865	-0.022007177
4	0x3c566aba	0.013086969
5	0xbc1a0de0	-0.009402722
6	0xbc61c523	-0.013779911
7	0x3ca1ba44	0.019742139
8	0x3d03f4bc	0.03221582
9	0xbd16812d	-0.036744285
10	0x3c360c97	0.0111114
11	0xbd51a386	-0.05118134
12	0x3d095ba6	0.03353467
13	0x3d54fc1f	0.051998254
14	0xbd2d6fb0	-0.04234284
15	0xbc3f0175	-0.011658062
16	0x3d0b8d85	0.03407051
17	0x3c0eeb9f	0.008723169
18	0x3d0360f3	0.03207488
19	0x37d0c239	2.4885974e-05
20	0x3cd3c632	0.025851343
21	0xbbf39196	-0.0074331267
22	0xbd10bfa1	-0.035339
23	0x3c90c3af	0.017671434
24	0xbb8ce641	-0.0042999093
25	0xbc4be1ab	-0.01244394
26	0xbbf2eab3	-0.0074132322
27	0x3c8a77ec	0.016902886
28	0xbc2561e5	-0.010094141
29	0x39e5c68c	0.00043826213
30	0x3bb79cbe	0.005603402
31	0xbc13eed7	-0.009029112
32	0x3b19cb62	0.0023467173
33	0x3d275bb7	0.04085895
34	0x3be34327	0.0069354954
35	0x3bc7568c	0.0060833152
36	0xba8a1102	-0.0010533633
37	0xbcd68d96	-0.02619056
38	0x3c6dafe6	0.0145072695
39	0x3d22e915	0.039773066
40	0x3bbc7eb2	0.005752408
41	0xbbddb9bc	-0.006766526
42	0x3c44f930	0.012022302
43	0x3cad633b	0.02116548
44	0xbc9b3cba	-0.018949855
45	0xbc95e0c1	-0.018295648
46	0x3ba9dd1e	0.00518383
47	0xba9ae068	-0.0011816146
48	0x3cb52eeb	0.022117099
49	0xbc585469	-0.013203719
50	0xbcfbaa28	-0.030720785
51	0x3ac4754a	0.0014988568
52	0x3c771705	0.015081172
53	0xb722edaf	-9.7112925e-06
54	0xbc85fb8b	-0.016355297
55	0xbb3b2691	-0.0028556923
56	0xbcaf2dae	-0.021384086
57	0xbcda16ab	-0.026622137
58	0xbcc279df	-0.023739753
59	0x3bc923c1	0.0061382954
60	0x3cd41356	0.025888126
61	0x3d22f8a3	0.0397879
62	0xbb70959d	-0.003671027
63	0xbcb2cf49	-0.021827357
64	0xbc196fce	-0.009365035
65	0x3c9edce8	0.019392446
66	0x3cb08e61	0.021552267
67	0xbc7ebe22	-0.015548261
68	0xba710078	-0.000919349
69	0x3b7958d1	0.0038047323
70	0x3c49a18c	0.012306582
71	0x3c3e8be0	0.0116300285
72	0xbbaca442	-0.0052686045
73	0xbc16bbaf	-0.009200021
74	0xbcfaa152	-0.030594502
75	0x3d0843ff	0.03326797
76	0xbc5ed06c	-0.013599496
77	0xbc3fcfb4	-0.011707235
78	0xbae130f3	-0.0017180726
79	0x39036a1a	0.0001253266
80	0xbc2c6669	-0.010522463
81	0x3ca08ca7	0.019598318
82	0x3cbed128	0.023293093
83	0xbc2c6272	-0.010521518
84	0xbb23ea12	-0.0025011343
85	0x39931b71	0.0002805847
86	0x3c347cb9	0.011016064
87	0x3bf6c6f4	0.0075310413
88	0x3c994cf2	0.018713448
89	0x3a1eecbe	0.0006062499
90	0xbcd96d71	-0.026541444
91	0x3c547c4c	0.012969088
92	0x3a481a04	0.0007633271
93	0xbc7a68e9	-0.015283802
94	0xbc7118b3	-0.014715361
95	0x3bae3dd1	0.0053174277
96	0x3be7bd83	0.007072152
97	0x3c048cab	0.0080901785
98	0x3c1c6c21	0.009547264
99	0x39f8602f	0.00047373908
100	0x3c82b98a	0.015957613
101	0xbc2a711a	-0.010402942
102	0xbbe3de13	-0.0069539635
103	0x3c8e615b	0.017380407
104	0x3cc216d1	0.02369252
105	0xbba85b7a	-0.005137858
106	0xbd16f182	-0.036851414
107	0x3c660694	0.014039654
108	0x3b29ab93	0.002588962
109	0xbc6683ea	-0.014069537
110	0xbc70a36a	-0.014687398
111	0x3c0a0e74	0.008426297
112	0xbb7080da	-0.0036697895
113	0x3c92cce3	0.017919963
114	0x3d46f491	0.04857308
115	0xbc8a5ae9	-0.016889052
116	0xbc0b038b	-0.008484731
117	0xbc893b32	-0.01675186
118	0x3c74d65a	0.0149436835
119	0x3bfee679	0.0077789393
120	0xbd1383a9	-0.036014233
121	0x3b2febf5	0.0026843522
122	0x3cac7897	0.021053595
123	0x3c402943	0.011728588
124	0xbcbbf92b	-0.022945961
125	0xba22b666	-0.0006206989
126	0x3d27658f	0.04086834
127	0xbaf67749	-0.001880386
128	0xbc91e94a	-0.017811436
129	0xbc1faab3	-0.009745288
130	0xbc8546af	-0.016269056
131	0x3c01e181	0.0079272995
132	0xbcd2f42c	-0.025751196
133	0x3bcac056	0.006187479
134	0x3c0f1181	0.008732201
135	0xbc93d1f5	-0.018044451
136	0xbd24136a	-0.040057577
137	0xbc17660c	-0.009240638
138	0x3c026648	0.007958956
139	0x3c928246	0.017884385
140	0xbcb1a9fa	-0.021687496
141	0x3bdb5611	0.0066936095
142	0x3d2bc410	0.041935027
143	0xbbb22191	-0.0054361303
144	0x3bf9acb7	0.007619466
145	0x3c2de5c7	0.010613865
146	0x3d08aeba	0.033369757
147	0xbd15ac90	-0.03654152
148	0x3ca799bc	0.020459048
149	0x3b60505b	0.0034227583
150	0xbc753877	-0.014967076
151	0x3c54688d	0.01296438
152	0xbba2aedd	-0.004964693
153	0x3c39dbc1	0.011343897
154	0x3bc54463	0.006020115
155	0x3ce3c069	0.02780171
156	0x3af8eaf5	0.0018990921
157	0xbcc3252d	-0.023821438
158	0x3cecc7e6	0.028903913
159	0x3c9a9cf4	0.01887367
160	0x3c263ec9	0.010146805
161	0x3c998dbd	0.018744344
162	0xbc4af84e	-0.012388302
163	0xbc0fb069	-0.008770087
164	0x3bff8be2	0.0077986578
165	0x3b91461a	0.0044334056
166	0xbc153bef	-0.009108528
167	0x3c011588	0.007878669
168	0x3c8f3866	0.017482948
169	0x3d2b5da7	0.04183736
170	0x3c3cc3e1	0.011521311
171	0x3cea6108	0.028610721
172	0xbce32f78	-0.027732596
173	0xbd83d102	-0.064363495
174	0x3bb9dd4d	0.005672133
175	0x3d0c7f52	0.03430111
176	0x3ca8cd7b	0.020605793
177	0xbc32d481	-0.010914923
178	0x3d303ef4	0.043028787
179	0xbd7fb2f9	-0.06242654
180	0x3d26f606	0.04076197
181	0x3ce4a372	0.027909968
182	0xbd60c607	-0.054876354
183	0xbc93fa02	-0.018063549
184	0x3baa65fb	0.0052001453
185	0x3c8340ea	0.016022164
186	0x3d1c8c5f	0.038219806
187	0xbc952041	-0.018203856
188	0x3c5c9485	0.013463144
189	0x3b5cef7c	0.003371208
190	0xba9121fb	-0.0011072749
191	0x3bfa1ba4	0.0076326896
192	0x3c16770c	0.009183656
193	0xbcad0d69	-0.021124559
194	0xbd3aa75c	-0.045569763
195	0x3c39616b	0.01131473
196	0x3bd60873	0.006531769
197	0x3b271fc1	0.0025501105
198	0xbc20cfea	-0.009815196
199	0xbc5ff81a	-0.013669992
200	0x3c8e89e1	0.01739973
201	0x3bb86abc	0.005627958
202	0x3d1638a5	0.036675114
203	0xbd0cd2ce	-0.034380727
204	0x3cacde5d	0.021102125
205	0xbaba7167	-0.001422447
206	0xbd2686fa	-0.040656067
207	0x3ba35360	0.0049843043
208	0x37ff4f8a	3.0435407e-05
209	0x3d15b611	0.036550585
210	0x3cae4480	0.021272898
211	0x3d516ccb	0.051129144
212	0xbd6851c2	-0.056718595
213	0xbd3b6179	-0.045747254
214	0x3d178c45	0.036999006
215	0x3ce2f2fb	0.027703753
216	0x3b05fd56	0.002044519
217	0x3c8e695d	0.017384226
218	0xb9dc309a	-0.0004199788
219	0x3cb077c0	0.021541476
220	0xbc31da9a	-0.010855341
221	0xbcba7652	-0.022761498
222	0x3bf6d8b2	0.0075331563
223	0x3c999880	0.018749475
224	0xbca4c374	-0.02011273
225	0x3bbccbdd	0.005761607
226	0x3ba048e0	0.0048915
227	0x3cce91fc	0.025216095
228	0xbcaf6a11	-0.021412881
229	0xbc791f14	-0.0152051635
230	0x3cffbee0	0.031218946
231	0x3c4acc88	0.012377866
232	0x3b805e6c	0.003917506
233	0xbceb2504	-0.028704174
234	0xbcf3db84	-0.02976776
235	0x3bc101df	0.0058901156
236	0x3cad4c3b	0.021154514
237	0x3cb3b7ad	0.02193817
238	0xbc60443d	-0.013688144
239	0xbc86198d	-0.016369605
240	0x3d2281e8	0.03967467
241	0x3d58be63	0.052915942
242	0x3d51bd17	0.05120572
243	0xbc790a0f	-0.015200152
244	0xbc75eafd	-0.015009639
245	0xbd6b9a13	-0.057519984
246	0x3bb1d45e	0.0054269275
247	0x3d75db99	0.060023878
248	0x3d016ceb	0.031598013
249	0x3cf88b0c	0.03033974
250	0x3d02b7aa	0.031913437
251	0x3c927d19	0.017881917
252	0xbc14d461	-0.009083838
253	0xbd887d54	-0.066645294
254	0xbc008c97	-0.007846019
255	0x3d4afb0a	0.049555816

model.layers.1.self_attn.o_proj.lora.A.weight f4 [8, 512]
0	0x3c7152c5	0.014729206
1	0xbca8f73a	-0.0206257
2	0xbbd2dea7	-0.0064352336
3	0xbc266ae8	-0.010157324
4	0x3d0837b7	0.03325626
5	0x3c148ab1	0.00906627
6	0xbcf3f2ce	-0.029778864
7	0xbd0e0fb1	-0.034682933
8	0x3aa4932b	0.0012556067
9	0xbc38ce8d	-0.011279714
10	0xbb2e0e4f	-0.0026558822
11	0x3ced10b4	0.028938629
12	0x3d06b8c1	0.03289104
13	0x3d19c54d	0.037541676
14	0xbc353551	-0.011060075
15	0x3cbae107	0.02281238
16	0x3ca810bb	0.02051579
17	0xbd0b0aca	-0.033945836
18	0xbd674de6	-0.056470774
19	0x3d0c902c	0.03431718
20	0xbcd29555	-0.025705973
21	0x3c64d21b	0.013966109
22	0x3ce713fe	0.028207775
23	0xbb0113b0	-0.0019695573
24	0xbc326a3b	-0.010889585
25	0xbc93bcec	-0.01803442
26	0x3beea694	0.0072830413
27	0x3d28a62f	0.04117411
28	0xbcd95577	-0.02653001
29	0xba050ae7	-0.0005075172
30	0xbd3070df	-0.043076392
31	0x3c49bfa6	0.012313759
32	0x3bd5bd95	0.006522844
33	0x3cac85e1	0.021059932
34	0xbd090230	-0.03344935
35	0x3d77b24b	0.060472768
36	0xbcc48215	-0.02398781
37	0xbc06da27	-0.0082307225
38	0xbc882eb2	-0.016623829
39	0x3ba74c65	0.0051055425
40	0x3d4134fb	0.047169667
41	0xbcd7a146	-0.026322018
42	0x3d4fb26e	0.050707273
43	0xbcd5ea77	-0.026112778
44	0x3c7c4cb8	0.015399151
45	0xbc1310f4	-0.00897621
46	0xbbb2949d	-0.005449845
47	0xbced9bde	-0.029004987
48	0xbc9fe6ac	-0.019519173
49	0xbbedbcde	-0.0072551807
50	0xbc26d669	-0.010182955
51	0x3c04b693	0.00810017
52	0xbcf8f3c9	-0.030389683
53	0xbd01980b	-0.03163914
54	0x3cd146b4	0.02554641
55	0xbc955410	-0.01822856
56	0x3c935ae1	0.01798767
57	0x3c9b2af2	0.018941376
58	0xbd052a45	-0.032511014
59	0xbd9cbc1b	-0.07653066
60	0x3b31b73c	0.0027117273
61	0xb9f0c82c	-0.00045925507
62	0x3c4818f7	0.012212983
63	0x3ba5ab13	0.005055794
64	0x3bb4820b	0.0055086664
65	0xbd35b560	-0.044362426
66	0x3c8b4743	0.017001754
67	0x3c0d4277	0.0086218035
68	0x3d07d156	0.033158623
69	0xbcb47dfc	-0.02203273
70	0xbd7c4b52	-0.06159527
71	0xbb8e1623	-0.004336135
72	0xbd303fbb	-0.043029528
73	0xbd46f67c	-0.04857491
74	0x3cdbf51d	0.026850278
75	0xbbbc7287	-0.0057509574
76	0xbc87d922	-0.01658303
77	0xbadddc4f	-0.0016926619
78	0xbcb28e7e	-0.021796461
79	0x3cc207e4	0.023685403
80	0x3d0ce5f7	0.034399
81	0x3bcbe27d	0.006222068
82	0xbcb3c3b6	-0.021943908
83	0x3d1a7a02	0.037714012
84	0xbd9ad0f9	-0.075593896
85	0xbc92aefe	-0.017905708
86	0x3ce393f2	0.027780507
87	0x3af77630	0.0018879827
88	0x3a688fd3	0.0008871529
89	0xbc739c89	-0.014868864
90	0x3d56a59f	0.052404042
91	0x3d0d9569	0.034566317
92	0xbd49e16a	-0.049287237
93	0xba309084	-0.00067354017
94	0xbc09aa24	-0.008402381
95	0xbc5e423a	-0.013565594
96	0x3bdf6c93	0.006818363
97	0x3d143c91	0.036190573
98	0x3c5d377d	0.013501999
99	0x3d2de38d	0.042453337
100	0x3c0b4fb6	0.008502891
101	0x3aea6569	0.0017883006
102	0xbb109c49	-0.002206581
103	0x3cd27b14	0.025693454
104	0x3d40562c	0.04695718
105	0xbcfdbf3d	-0.030974979
106	0x3d1e4026	0.038635395
107	0xbcc2ff9e	-0.023803528
108	0x3c944556	0.018099468
109	0xbb918e87	-0.0044420394
110	0xbc6abbd8	-0.014327012
111	0xbc7dba45	-0.015486305
112	0xbcb18859	-0.021671461
113	0x3d0bb19a	0.03410492
114	0xbc2a73e3	-0.010403606
115	0xbbc9ba42	-0.006156237
116	0xbbc3eb77	-0.0059789973
117	0xbd28d144	-0.041215196
118	0x3d343435	0.0439951
119	0xbc34b9f7	-0.011030666
120	0x3d0add26	0.03390231
121	0xbca5a2a6	-0.020219158
122	0xbc0db41a	-0.008648897
123	0xbd748cf7	-0.059704747
124	0xbbda5c1b	-0.006663812
125	0xbcaca106	-0.021072876
126	0xbc48ca94	-0.01225533
127	0x3c9d2ef5	0.01918743
128	0x3d1fca22	0.03901113
129	0xbb066729	-0.0020508266
130	0x3c825f3c	0.015914552
131	0xbd415dcc	-0.047208592
132	0x3ca0f044	0.019645818
133	0xbbed4c98	-0.0072417967
134	0xbdc28cf3	-0.0949954
135	0x3c0a6c71	0.008448706
136	0xbce5bfe2	-0.028045598
137	0x3b8fb659	0.004385751
138	0x3c8d8e1b	0.017279675
139	0x3d347227	0.044054177
140	0x3cd1a942	0.025593404
141	0x3c752318	0.01496198
142	0xbc46ac87	-0.012126095
143	0x3cda8df9	0.026679026
144	0x3cfab0b2	0.030601833
145	0xbd273668	-0.04082337
146	0xbd046664	-0.03232421
147	0x3c9cb7f3	0.019130683
148	0xbd16dfe8	-0.036834627
149	0x3c650c5e	0.013979999
150	0x383fb029	4.570201e-05
151	0x3cdfc556	0.027315777
152	0x3c36d983	0.011160257
153	0x3d52211d	0.05130111
154	0x3cba6e76	0.02275775
155	0x3d0fa2c9	0.035067353
156	0xbd802804	-0.062576324
157	0x3ca65842	0.020305756
158	0x3d298ab3	0.04139204
159	0x3d17d238	0.037065715
160	0xbcbb0a9e	-0.022832211
161	0x3d0d3253	0.03447182
162	0xbbb79576	-0.005602534
163	0x3d27bf29	0.04095379
164	0x3c84576b	0.016154965
165	0xbcbdab88	-0.023153082
166	0xbc9d1342	-0.019174222
167	0xbb43a906	-0.0029855384
168	0x3d32bc9c	0.043636903
169	0xbb96e380	-0.004604757
170	0xbc1cf967	-0.0095809465
171	0xbc5f455c	-0.013627376
172	0xbc85ca04	-0.01633168
173	0xbc8f9e23	-0.01753146
174	0xbcd00f7b	-0.025398007
175	0xbd11390b	-0.03545479
176	0xbccbfd32	-0.024901006
177	0x3d00341f	0.031299707
178	0xbccc5205	-0.024941454
179	0x3bb3dd8d	0.0054890574
180	0xbca75386	-0.02042557
181	0xbd7cddc9	-0.06173495
182	0x3a78be17	0.0009488775
183	0x3d42d29c	0.047564134
184	0x3aa23d46	0.001237788
185	0x3d1329d7	0.035928573
186	0xbcebcb1a	-0.02878337
187	0xbce25916	-0.02763037
188	0xbd1d2e20	-0.038374066
189	0x3cb0be1c	0.021575026
190	0xbcd98150	-0.026550919
191	0x3d0a39c9	0.033746514
192	0x3d192f1a	0.037398435
193	0x3ce7a70d	0.028277898
194	0x3c779114	0.015110273
195	0xbd238838	-0.03992483
196	0x3d02ec2b	0.03196351
197	0x3d237182	0.03990317
198	0xbd19755c	-0.03746544
199	0xbd2077b3	-0.039176654
200	0xbc9ffc74	-0.019529559
201	0xb9a2c196	-0.0003104328
202	0xbbffdb1f	-0.0078081037
203	0x3d3a70bf	0.04551768
204	0xbd70267e	-0.05863046
205	0x3d43deed	0.04782002
206	0xbc9293bb	-0.017892709
207	0x3b46e193	0.0030346855
208	0xbcb817c5	-0.022472272
209	0xbd633503	-0.055470478
210	0xbd6690ef	-0.056290563
211	0x3a8408bd	0.0010073405
212	0xbca3e026	-0.020004343
213	0x3d59f9ff	0.05321693
214	0x3d139368	0.03602925
215	0xbd24f56f	-0.040273126
216	0x3b4fabdf	0.0031688137
217	0x3bb45b93	0.0055040806
218	0x3c9cd9c7	0.019146813
219	0x3d8a0836	0.06739847
220	0xba8a3fc3	-0.0010547567
221	0x3c2986e8	0.010347106
222	0xbd4d5bfc	-0.05013655
223	0x3c8df23e	0.017327424
224	0xbc81b1ec	-0.01583191
225	0x3c78e00f	0.0151901385
226	0x3c5dabaf	0.013529702
227	0xbc2f7009	-0.010707864
228	0x3cf9cd4f	0.030493407
229	0xbc71f4b9	-0.014767819
230	0x3c6eded8	0.014579497
231	0x3c902884	0.017597444
232	0x3d3bc897	0.045845594
233	0xbd1e9750	-0.03871852
234	0x3c5d07f5	0.013490667
235	0xbdc0bead	-0.094113685
236	0x3dcf7b50	0.10130942
237	0xbbbf1966	-0.005831885
238	0xbd21767f	-0.039419647
239	0xbd922d31	-0.07137526
240	0xbd1b4ee3	-0.03791703
241	0x3d4e9970	0.0504393
242	0x3bc4b497	0.0060029733
243	0x3d3a4616	0.045476995
244	0x3d0fc215	0.0350972
245	0xbbe87df5	-0.0070950934
246	0x3d10f6bf	0.035391565
247	0x3d4b62a1	0.049654607
248	0x3d0af210	0.033922255
249	0x3cfaae5f	0.030600725
250	0xba2db384	-0.0006626176
251	0xbca6825c	-0.020325832
252	0xba4b7ff3	-0.00077629014
253	0x3c5eebe4	0.013606045
254	0x3c4be743	0.012445274
255	0x3d034821	0.03205121
