my_lora/lora_robocup_512.pth (torch, 535546 bytes, 32 tensors)

model.layers.0.self_attn.q_proj.lora.A.weight f4 [8, 512]
0	0xbc902b1d	-0.017598683
1	0xbc9bf811	-0.019039186
2	0x3ccdd3f0	0.025125474
3	0xbcf9e9ca	-0.030506987
4	0xbca5dd13	-0.020247018
5	0xbc2caf90	-0.010539904
6	0xbb0814c5	-0.0020764333
7	0x3cbc0842	0.022953156
8	0x3cea275a	0.028583217
9	0x3d102542	0.03519178
10	0xbc91a9fd	-0.017781252
11	0x38311a8f	4.2224823e-05
12	0xbc913691	-0.017726215
13	0x3c03bf44	0.008041207
14	0x3c35a483	0.011086586
15	0xbcde9928	-0.02717264
16	0xbc97d442	-0.01853383
17	0x3d17f5a1	0.037099484
18	0x3d0998aa	0.033592857
19	0xbcfe4519	-0.031038808
20	0xbc06b6da	-0.008222306
21	0xbc83f13b	-0.016106239
22	0xbd1555c6	-0.036458753
23	0x3cd494ca	0.025949854
24	0x3c443118	0.0119745955
25	0x3d13ca13	0.036081385
26	0xbcc075af	-0.023493616
27	0x3afc4a50	0.0019248221
28	0xbcf806a9	-0.030276613
29	0x3c835cc8	0.016035452
30	0x3b6ed5a7	0.0036443265
31	0xbbb59f19	-0.0055426476
32	0xbc8d8cd2	-0.017279062
33	0xbcc0fd60	-0.023558319
34	0xbc481257	-0.012211404
35	0xbc0a5f63	-0.0084455935
36	0xbc4f213f	-0.012642204
37	0x3bf610cd	0.007509327
38	0x3cba1cfc	0.022718899
39	0xbcbafb5e	-0.02282494
40	0xbbf9eda6	-0.007627207
41	0x3be27a3d	0.0069115446
42	0xbc490fd6	-0.012271842
43	0x3c801bde	0.015638288
44	0xbc71a199	-0.014748001
45	0xbc9239fd	-0.017849917
46	0xbbfa85b5	-0.0076453337
47	0x3c43ab9d	0.011942771
48	0x3cd519c3	0.02601326
49	0xbc649f1e	-0.013953952
50	0x3cfe9091	0.031074794
51	0xbc0a68de	-0.008447854
52	0xbbb59893	-0.00554187
53	0xbd01c99b	-0.031686407
54	0x3ae585b6	0.0017511162
55	0xbb7043c5	-0.0036661488
56	0xbbe9146c	-0.00711303
57	0xbbf1c167	-0.0073777917
58	0x3bbe2f3a	0.0058039697
59	0x3b93876f	0.004502229
60	0xbd22c981	-0.03974295
61	0x3b3a5653	0.00284328
62	0x3ca54050	0.020172268
63	0x3cdaab90	0.026693135
64	0xbc574426	-0.013138806
65	0x3b9c730d	0.0047744573
66	0x3c9162c3	0.017747289
67	0x3ca5d43b	0.020242801
68	0xbbb83188	-0.005621139
69	0x3c4a3688	0.012342103
70	0xbc554584	-0.013017062
71	0xbc8f73b8	-0.017511234
72	0xbc4a37f2	-0.01234244
73	0xbbe95fbe	-0.007122009
74	0x3c4a844b	0.012360643
75	0xbd29c8ef	-0.04145139
76	0xbce6060c	-0.028079055
77	0xbc792963	-0.015207621
78	0x3d2b9c47	0.041897085
79	0xbc8625bf	-0.01637542
80	0x3cf8502c	0.030311666
81	0xbcb50855	-0.0220987
82	0xbaaa643d	-0.0012999844
83	0x3cd859a7	0.026409937
84	0x3d4a76f8	0.049429864
85	0x3bde380a	0.0067815827
86	0x3ccb67c5	0.024829755
87	0x3c2ee437	0.010674528
88	0x3cddea6d	0.027089322
89	0xbc5a8c32	-0.013339089
90	0xba835601	-0.0010020138
91	0xbbe03ba1	-0.006843046
92	0x3c9befcb	0.01903524
93	0xba1eb725	-0.00060545123
94	0xbc347570	-0.011014327
95	0x3c0c12de	0.00854942
96	0x3bdbfa87	0.006713215
97	0x3d0bb10b	0.03410439
98	0xbd10b280	-0.03532648
99	0x3d1436cd	0.036185075
100	0x3bf86649	0.0075805527
101	0x3be6b48b	0.0070405654
102	0x3caddfc5	0.021224866
103	0x3caaee88	0.020865694
104	0x3c444987	0.011980421
105	0xbcbd1756	-0.023082417
106	0x3d22403f	0.03961205
107	0x3ad2adf3	0.001607357
108	0x3c6c9ef8	0.014442198
109	0x3cc9dd50	0.024641663
110	0xbb74daf9	-0.0037361963
111	0xbcaae844	-0.020862706
112	0x3bc8b1ee	0.0061247265
113	0x3c8ec0f2	0.017425988
114	0x3c43f86f	0.011961087
115	0xbc4b2f7f	-0.012401461
116	0xbcc2c29a	-0.023774434
117	0x3d151bb2	0.036403365
118	0x3c663ca7	0.014052547
119	0xbc6db28a	-0.014507899
120	0xbc341988	-0.010992415
121	0xbb846ca5	-0.0040412717
122	0x3c2cdc2e	0.010550542
123	0xbca302cb	-0.019898793
124	0x3bbc03cd	0.005737758
125	0xbc867b04	-0.01641608
126	0xbc8cc4ec	-0.017183743
127	0x3c7b9827	0.0153561
128	0xbc78964c	-0.015172552
129	0x3b8dea92	0.0043309415
130	0x3d62a0d2	0.05532915
131	0x3c6cae3e	0.014445839
132	0x3d2005c8	0.039068013
133	0x3c2f15a7	0.010686315
134	0x3af5acf2	0.0018743558
135	0x3c28d5a8	0.010304846
136	0xbd104634	-0.0352232
137	0xbcc91a6f	-0.024548737
138	0x39b8ad28	0.00035224226
139	0x3c79da72	0.015249835
140	0x3cadf82b	0.0212365
141	0xbcb669d9	-0.022267269
142	0x3d1e4db5	0.038648326
143	0x3bf759b6	0.007548536
144	0x3cf31ad9	0.029675888
145	0xbccfd99e	-0.025372323
146	0x3c015b1b	0.007895256
147	0x3c1aec79	0.009455794
148	0xbbb473d5	-0.0055069723
149	0x3d01279a	0.031531908
150	0x3c8cf3ca	0.017206091
151	0x3bf1262b	0.0073592863
152	0xbc49c3c3	-0.01231474
153	0x3bd8c105	0.0066148066
154	0x3b84a3b2	0.0040478343
155	0xbd082eaa	-0.033247627
156	0xbb3c587e	-0.002873927
157	0xbc3181a1	-0.010834129
158	0xba82d414	-0.0009981417
159	0xbb1c9300	-0.002389133
160	0x3c45158f	0.012029066
161	0xbbb9d3c3	-0.005670996
162	0xbc11ae1c	-0.008891609
163	0x3d2f16c5	0.042746324
164	0x3d245000	0.040115356
165	0x3b44ed97	0.003004884
166	0x3bbe9790	0.0058164075
167	0xbbf4f0fe	-0.0074750176
168	0xbd2bc696	-0.041937433
169	0xbca749b3	-0.020420885
170	0x3c4ee811	0.012628571
171	0x3c995019	0.018714951
172	0x3cb74219	0.022370385
173	0x3ccea8d1	0.025226982
174	0xbd08b552	-0.033376046
175	0x3d21b49f	0.039478894
176	0xbca8e789	-0.020618217
177	0xbbf9ffe9	-0.007629384
178	0x3caca9a9	0.021076994
179	0xbc7aeac3	-0.015314761
180	0xbcf7ecc9	-0.030264275
181	0xbced09a2	-0.028935257
182	0xbcc9afa8	-0.024619892
183	0xbb923c05	-0.0044627213
184	0x3cbdb4f6	0.023157578
185	0x3b8da75a	0.0043229284
186	0x3bf16195	0.007366369
187	0x3ccfdf71	0.0253751
188	0x3d0bd1cf	0.034135636
189	0x3d00ada2	0.03141559
190	0x3c66cfbb	0.014087613
191	0xbc7d6c8f	-0.015467777
192	0xbc67ecbd	-0.014155564
193	0xbca49313	-0.020089662
194	0x3bbaf75f	0.0057057585
195	0x3b39c767	0.0028347613
196	0xbd434735	-0.04767533
197	0xba66a05b	-0.00087976985
198	0xbc2fa6a3	-0.010720882
199	0xbbbbb4c9	-0.0057283384
200	0xbc66f613	-0.014096755
201	0xbce02099	-0.027359294
202	0x3cbda26d	0.02314874
203	0xbbca01ea	-0.006164779
204	0xbb026799	-0.0019898175
205	0xbc80afce	-0.01570883
206	0x3d1e1564	0.03859462
207	0x3c315f5a	0.010825956
208	0x3be2f683	0.006926359
209	0x3bd6e39b	0.0065578944
210	0x3b3f6553	0.002920468
211	0x3c9f0019	0.019409226
212	0xbbd8034f	-0.0065921913
213	0xbcdd1cbe	-0.026991244
214	0x3c900c27	0.01758392
215	0x3a64d2e1	0.0008728933
216	0xbc028898	-0.007967137
217	0xbcac53bd	-0.021036023
218	0x3ce5fd6f	0.028074948
219	0x3d06f03a	0.03294394
220	0xbc8d0a8f	-0.017216949
221	0xbd33f66a	-0.04393617
222	0xbd3992e3	-0.045306098
223	0xbcafdbd0	-0.02146712
224	0x3bd190ed	0.0063954503
225	0xbc6eea6d	-0.014582259
226	0xbc916dc7	-0.017752541
227	0x3b246b08	0.002508821
228	0x3d162226	0.03665366
229	0xbc90236c	-0.017595015
230	0x3cf1fe7a	0.02954029
231	0xbcb361cc	-0.02189722
232	0xbc655f5f	-0.013999789
233	0x3d0e1193	0.03468473
234	0x3c84e949	0.01622452
235	0x3cf8de9a	0.030379582
236	0xbc133a00	-0.008985996
237	0xbca0804e	-0.01959243
238	0x3cbc0ffc	0.02295684
239	0x3c8defde	0.017326292
240	0xbc31d163	-0.010853144
241	0x3a445452	0.00074893713
242	0xbd1c0fd0	-0.038101017
243	0x3c6fb222	0.0146298725
244	0xbc39951c	-0.011327054
245	0x3c5ab4cb	0.013348768
246	0x3c5f9db0	0.0136484355
247	0xbab9b30f	-0.0014167744
248	0xbc56e4d6	-0.013116082
249	0x3b23619e	0.002493001
250	0xbbd1ec4b	-0.006406342
251	0x3cc9f365	0.024652192
252	0xbc2f6f05	-0.010707621
253	0xbd3871ee	-0.045030527
254	0xbcdd49fa	-0.027012814
255	0xbc7b782a	-0.015348474

model.layers.0.self_attn.q_proj.lora.B.weight f4 [512, 8]
0	0xbc813ec7	-0.015777005
1	0x3c8b4094	0.016998567
2	0x3bdf465c	0.0068138074
3	0xba84bb28	-0.0010126578
4	0xbb008ef2	-0.0019616452
5	0xb98ab987	-0.0002645964
6	0x3bc1f3c9	0.005918954
7	0x3c0da5a4	0.008645449
8	0x3bd7c104	0.0065842886
9	0xbc162f8e	-0.009166611
10	0xbb0257cb	-0.0019888754
11	0x3b7f0326	0.0038911789
12	0xba3a57b1	-0.0007108404
13	0xb9d27e6f	-0.00040148522
14	0xbac7716f	-0.0015216301
15	0xbc386b32	-0.011256026
16	0xbc127cc0	-0.0089408755
17	0x3ca1e11f	0.019760666
18	0xbb22758d	-0.0024789304
19	0xbc0ffbc4	-0.008788053
20	0xbc1864af	-0.009301349
21	0xbc067878	-0.008207433
22	0xbb4b3917	-0.003100937
23	0x3ada14b3	0.0016638249
24	0x3c5a856e	0.013337476
25	0x3b5996b0	0.003320139
26	0xbaf21153	-0.0018468298
27	0xbc0d2149	-0.008613893
28	0xbc53d4a6	-0.012929117
29	0xbc338480	-0.010956883
30	0x3c3d5778	0.011556499
31	0xbca0241a	-0.019548465
32	0x3b7d2aed	0.0038630322
33	0x3b5618eb	0.003266866
34	0x3ba6acb6	0.0050865067
35	0x3bf23e44	0.0073926765
36	0xbbcac9ab	-0.0061885915
37	0x3b237c68	0.0024945978
38	0xbad6865b	-0.0016366945
39	0xbb184adb	-0.0023237977
40	0x3af3ae18	0.0018591313
41	0xbc22b785	-0.00993145
42	0x3abb016c	0.0014267392
43	0xbb18dd90	-0.002332542
44	0x3c263a52	0.010145741
45	0x3b8d4071	0.0043106605
46	0xbc1a488a	-0.009416709
47	0x3aef7d05	0.0018271512
48	0xbb8a5db0	-0.004222594
49	0x3bbbe40a	0.0057339715
50	0xbb928ce8	-0.0044723637
51	0xbc315fa6	-0.010826027
52	0xbb4d41de	-0.0031319777
53	0xbb8d8dc2	-0.0043198774
54	0xbb190915	-0.002335136
55	0xbbcd8b0b	-0.0062726787
56	0xbb28b1eb	-0.0025740813
57	0x3b09eb61	0.0021044838
58	0xbbd52303	-0.006504418
59	0xbbb32a4c	-0.0054676887
60	0xbc1cf21b	-0.009579207
61	0xbc174a20	-0.009233981
62	0xbb92d6b3	-0.0044811605
63	0xbc08c487	-0.008347637
64	0xbb8b7be6	-0.004256713
65	0xbc2e9b81	-0.010657192
66	0xbc03d134	-0.008045483
67	0xbbafda85	-0.0053666257
68	0x3bd2a519	0.0064283726
69	0xbac499eb	-0.0014999484
70	0x3b879dc2	0.0041386792
71	0xbb22260e	-0.002474192
72	0xba412164	-0.00073673413
73	0xbb584e99	-0.0033005832
74	0xb9ee33c8	-0.00045433477
75	0xbadfbaf7	-0.001706927
76	0x3b1c79da	0.002387634
77	0x3c07bda2	0.008284958
78	0x3b48058e	0.003052089
79	0x3b254308	0.0025216956
80	0x3b92a375	0.004475052
81	0xbbe5e61e	-0.0070159575
82	0x3a3e1529	0.0007251078
83	0x3bc26ba8	0.005933244
84	0x3a6aeeef	0.00089619955
85	0x3b70968d	0.003671083
86	0xbbe27a16	-0.0069115264
87	0x3b63d65c	0.003476522
88	0x39f35e8b	0.00046419012
89	0xbc03c230	-0.008041903
90	0x3c4afbbb	0.012389119
91	0x3b45343c	0.0030090949
92	0x3c7cb8a5	0.015424882
93	0x3c8602a5	0.016358683
94	0x39461eff	0.00018894298
95	0x3c60fece	0.013732625
96	0xb919f03c	-0.00014680711
97	0x3a551fb8	0.00081300316
98	0x3ae03888	0.0017106691
99	0xbbff424e	-0.0077898866
100	0x3b5c83de	0.0033647935
101	0xbb5d728d	-0.0033790201
102	0x3c07cefa	0.008289093
103	0xbb64820e	-0.0034867558
104	0x3c121306	0.008915668
105	0xbc393591	-0.011304275
106	0x39c4972c	0.00037496665
107	0x3ba7f521	0.005125657
108	0xbba44b80	-0.005013883
109	0x3b87f2c6	0.004148814
110	0xbc06d485	-0.00822938
111	0xba0b3489	-0.00053102575
112	0xb936d6c1	-0.00017436875
113	0x387987e8	5.94928e-05
114	0xbc0dde54	-0.008658964
115	0x3b9ce8d8	0.0047884993
116	0xbbdd5139	-0.0067540673
117	0xbc0896bd	-0.00833672
118	0xbb03e54d	-0.0020125688
119	0xbb4fe749	-0.003172355
120	0xbb9a28ce	-0.0047045713
121	0x3bb3d80d	0.0054884017
122	0x3b7f1579	0.003892271
123	0x3b91aed6	0.004445891
124	0x3a9d151e	0.0011984443
125	0x3c01fa90	0.007933274
126	0x3c50cbee	0.012743933
127	0x3a943c94	0.0011309558
128	0xbbe44d8c	-0.006967252
129	0xbb920d5f	-0.0044571604
130	0xbad5898e	-0.0016291605
131	0x3b924c6b	0.004464676
132	0x3c2c9863	0.010534379
133	0x3a4c3491	0.00077898154
134	0xbc68fb2e	-0.014220042
135	0x3bfd2e56	0.007726471
136	0x3c051450	0.008122519
137	0xbbab2652	-0.005223074
138	0x3c727381	0.014798046
139	0x3bdecd30	0.0067993626
140	0x3c061f61	0.008186192
141	0x3c7ce4e4	0.015435431
142	0xbc03dbc3	-0.008048001
143	0x3c1473f7	0.009060851
144	0x3c63997c	0.013891574
145	0xbc293a82	-0.010328891
146	0x3c09081b	0.008363749
147	0x39b7c651	0.00035052237
148	0x3ba0661b	0.0048949844
149	0x3bf6eb79	0.0075353947
150	0xbc479d6d	-0.012183529
151	0xba61bc00	-0.0008611083
152	0x39ac983d	0.00032919823
153	0x376a53eb	1.3967026e-05
154	0x3a75323d	0.00093534944
155	0xbc3b6a20	-0.011438876
156	0x3a30f02d	0.0006749656
157	0xbb813629	-0.003943224
158	0x3b85420c	0.0040667113
159	0xbbc9dea2	-0.006160573
160	0x3b6e8c6a	0.0036399611
161	0xba40d263	-0.0007355569
162	0x3b88bd50	0.0041729584
163	0x3b44915d	0.002999387
164	0xbb53e5f7	-0.0032333115
165	0x39d54230	0.0004067584
166	0xbbd9442d	-0.0066304416
167	0x3b5c5ea8	0.0033625755
168	0xba398e84	-0.00070784264
169	0x3b649314	0.0034877704
170	0x3bb4de33	0.0055196523
171	0xbac026fc	-0.0014660056
172	0x3bd6bac3	0.0065530255
173	0x3c0b6a56	0.008509239
174	0x3beeb461	0.0072846864
175	0x3bf00b23	0.0073255464
176	0x3b5025c8	0.00317608
177	0xbbacc6a5	-0.0052727037
178	0xbb41d590	-0.0029576756
179	0x3bf078f5	0.007338638
180	0x3af29354	0.0018507042
181	0xbb81ae0c	-0.0039575156
182	0xbc415be1	-0.011801691
183	0xbb34617a	-0.002752392
184	0xbbb8f300	-0.005644202
185	0x3b17e6bf	0.0023178307
186	0x3b58b770	0.0033068322
187	0x3900e784	0.00012293278
188	0xbab2066e	-0.0013582238
189	0x3c07feea	0.008300522
190	0xbbfd72f5	-0.007734651
191	0x3b734378	0.0037119072
192	0xbb57ed69	-0.0032947904
193	0x3c464153	0.012100535
194	0x3ac2701e	0.0014834439
195	0x3b688cf8	0.0035484415
196	0xbbf95d94	-0.0076100323
197	0xb7d8023e	-2.575025e-05
198	0x3c19aeb4	0.009380031
199	0xbb416285	-0.0029508185
200	0x3be1c828	0.0068903156
201	0x3bc199d5	0.005908231
202	0x3bb179a2	0.005416111
203	0x3b7d9f8f	0.003869984
204	0xbc0c0182	-0.008545281
205	0x3ba3ff22	0.0050047794
206	0xbad56e46	-0.0016283474
207	0xba185072	-0.0005810327
208	0xbbc436c2	-0.005987973
209	0x3b6a5508	0.003575625
210	0xbbb43095	-0.0054989555
211	0xbb8f2ea8	-0.0043695755
212	0xbb0e71bb	-0.002173527
213	0xbb86d92e	-0.0041152453
214	0x3c0cf391	0.008602993
215	0xbb78dafb	-0.003797232
216	0xbc045804	-0.008077625
217	0xbab4466c	-0.0013753898
218	0xbbb69ea2	-0.0055731097
219	0xbc200492	-0.009766715
220	0x3b4726c4	0.0030388096
221	0xbc3fe7c1	-0.011712969
222	0x3c1b55a7	0.00948087
223	0xbc1ed14f	-0.009693458
224	0xbaa20db0	-0.0012363698
225	0x3b9ef2bf	0.004850715
226	0xbbc67039	-0.0060558585
227	0x3a8e4763	0.0010855015
228	0x38308512	4.20856e-05
229	0xbc0922fc	-0.008370157
230	0x3bb0ecee	0.005399338
231	0xbc132766	-0.008981561
232	0x3be384d7	0.006943326
233	0x3b0c9da4	0.0021456266
234	0xbb011906	-0.0019698753
235	0xba0a9196	-0.0005285976
236	0xbc0a0bc4	-0.008425657
237	0xbb81d97f	-0.003962695
238	0x3b80a4c1	0.00392589
239	0xbba87f1d	-0.005142106
240	0x3a44c178	0.0007505636
241	0x3b700c30	0.0036628358
242	0x3acb2a83	0.001550034
243	0xbae6d9b9	-0.0017612494
244	0xbbef5617	-0.007303964
245	0xb962c8e0	-0.00021627871
246	0x3bac1e35	0.0052526244
247	0x3b57f1a8	0.0032950435
248	0x3c0c12f8	0.008549444
249	0xbbf42f8d	-0.0074519576
250	0x3b336a8e	0.0027376744
251	0xbb88de62	-0.0041769007
252	0x3ba8814c	0.0051423665
253	0x3c17a759	0.009256207
254	0x3aa9f6c0	0.0012967214
255	0x3b60a34d	0.0034277022

model.layers.0.self_attn.o_proj.lora.A.weight f4 [8, 512]
0	0xbc9f4531	-0.019442173
1	0xbb6caabc	-0.0036112508
2	0x3c59c46e	0.013291461
3	0x3cbdea4e	0.023183014
4	0xbc7872e3	-0.01516411
5	0x3d42d848	0.047569543
6	0x3c27ef90	0.010249987
7	0x3c2830f0	0.010265574
8	0x3cd3117d	0.025765175
9	0x3d13010f	0.03588968
10	0x3c4c016c	0.012451511
11	0xbbd82540	-0.0065962374
12	0xbba94029	-0.005165119
13	0x3b936c6f	0.0044990103
14	0x3a31596f	0.0006765341
15	0xbb9740e7	-0.0046158913
16	0x3cddeab7	0.02708946
17	0xbc978d17	-0.018499894
18	0x3bf3bd6b	0.007438352
19	0xbd2fff75	-0.042968232
20	0xbc9eee39	-0.019400703
21	0xbc91545e	-0.017740425
22	0x3d62c751	0.055365864
23	0xbc615ef9	-0.013755553
24	0x3b696f04	0.003561915
25	0x3c988c4d	0.018621588
26	0xbc5f1390	-0.013615504
27	0xbc3dfbdc	-0.0115956925
28	0xbc6479b7	-0.013945035
29	0x3d044828	0.032295376
30	0x3c7c8edc	0.01541492
31	0xbc79ea72	-0.01525365
32	0xbcc2c14b	-0.02377381
33	0xbb4f8198	-0.0031662937
34	0x3c15ad0f	0.009135499
35	0xbc4c4662	-0.012467952
36	0xbbddf66d	-0.006773761
37	0xbccf9354	-0.025338806
38	0x3ba1d6b5	0.004938925
39	0xbbb5981b	-0.005541814
40	0xb96de7df	-0.0002268846
41	0x3cb9899f	0.02264863
42	0xbc3608b1	-0.011110471
43	0x3cecf778	0.028926596
44	0x3a943e0b	0.0011309994
45	0x3c462a99	0.012095117
46	0x3ce597d8	0.028026506
47	0xbb7bac77	-0.0038402358
48	0xbc652a45	-0.013987129
49	0x3cdb1999	0.026745604
50	0xbcb787ad	-0.022403562
51	0xba5122c0	-0.00079778954
52	0xbd4fd9ff	-0.050745007
53	0x3acc7226	0.0015597984
54	0xbd7e796a	-0.06212751
55	0x3600c292	1.9186741e-06
56	0x3d037e95	0.03210314
57	0xbc58570b	-0.013204346
58	0xbccdd260	-0.025124729
59	0xbc80ff12	-0.015746627
60	0x3c811455	0.015756765
61	0x3cc77a06	0.024350177
62	0x3bad8ed1	0.005296566
63	0x2f375cb9	1.6676695e-10
64	0xbc4ae588	-0.012383826
65	0xbcb12bc6	-0.021627318
66	0xbc871a23	-0.016491955
67	0xbb00cf19	-0.001965469
68	0xb9dce86e	-0.00042134844
69	0x3ceae7a1	0.028674902
70	0x3cb8606e	0.022506919
71	0xbcba0335	-0.022706607
72	0x3cf104ed	0.029421294
73	0x3d554836	0.05207082
74	0xbbeeb5f6	-0.007284875
75	0xbd34d9e7	-0.04415312
76	0xbc9df98b	-0.01928403
77	0xbb8e46f6	-0.0043419553
78	0xbd491805	-0.049095172
79	0x3d1b158e	0.037862353
80	0xbadbcefe	-0.0016770063
81	0xbd201d08	-0.039090186
82	0x3c878f1a	0.016547728
83	0x3c346f6e	0.011012895
84	0xbb61ea4c	-0.0034471927
85	0xbae3adc7	-0.0017370515
86	0x3c90b434	0.017664053
87	0x3c22d87a	0.009939307
88	0x3bcc9376	0.0062431647
89	0x3cc10257	0.023560686
90	0xbc7bc087	-0.015365726
91	0xbd0c6a80	-0.034281254
92	0xbccdf7d4	-0.025142588
93	0x3c069b5d	0.008215752
94	0xbcbc22dd	-0.022965843
95	0x3d0ce57d	0.034398545
96	0xbc5acf77	-0.013355128
97	0x3c01f00c	0.007930767
98	0x3c4a0bae	0.012331886
99	0xbc8e6989	-0.017384307
100	0xbc82955b	-0.015940359
101	0xbc823563	-0.015894597
102	0x3bc870b0	0.006116949
103	0xbca48801	-0.020084383
104	0x3d5ed85e	0.054405563
105	0x3ca46ae2	0.020070497
106	0xbac0503d	-0.001467235
107	0x3ca6ad1d	0.020346219
108	0xbbbbe218	-0.0057337396
109	0xbc134842	-0.008989396
110	0x3bcb4238	0.0062029622
111	0x3b42e061	0.002973579
112	0x3b97add0	0.0046288744
113	0xbd65a6db	-0.05606733
114	0xbb8270dc	-0.003980739
115	0x3cc89d19	0.024488972
116	0x3c14e5ea	0.009088019
117	0x3c8d074a	0.01721539
118	0xbcba7386	-0.022760164
119	0xbb8e5b17	-0.004344355
120	0xbd0a2e24	-0.03373541
121	0x3cea9801	0.028636934
122	0x3bae9871	0.005328231
123	0xbc7eabfd	-0.015543935
124	0x3d4185a3	0.047246587
125	0x3d0deae3	0.034647834
126	0xbc36c04c	-0.011154246
127	0x3cbabd49	0.022795336
128	0xbc6ae0e6	-0.0143358465
129	0xbcbff29e	-0.023431119
130	0xbd578ab8	-0.052622527
131	0x3c90ced8	0.017676756
132	0x39c834ff	0.00038186458
133	0x3caf31bf	0.021386025
134	0x3d0bd734	0.03414078
135	0x3c8c25f6	0.017107945
136	0x3cdee905	0.027210722
137	0x3ce43a6f	0.027859895
138	0x3c2d0fff	0.010562896
139	0xbc1f2216	-0.009712717
140	0xbca570e6	-0.020195436
141	0x3cae1c51	0.021253737
142	0x3d0d2b3f	0.03446507
143	0x3c99fa76	0.018796187
144	0xbd02594c	-0.03182344
145	0xbcab03ff	-0.020875929
146	0xbab44b06	-0.0013755269
147	0xbd22baac	-0.039728805
148	0xbca62e75	-0.020285824
149	0xbb18a346	-0.0023290678
150	0x3d00b37c	0.03142117
151	0x3c308d1e	0.010775832
152	0x3c90ec80	0.017690897
153	0x3c059bab	0.00815479
154	0xbd1dbb25	-0.038508553
155	0x3bf6f7c8	0.007536862
156	0x3c5af151	0.013363198
157	0xbd101cfb	-0.035183888
158	0xbbcc44a4	-0.0062337685
159	0xbc45f255	-0.012081702
160	0x39d4c623	0.00040583414
161	0xbd1ef2dc	-0.038805827
162	0xbc26eb70	-0.010187969
163	0x3d0f19a1	0.03493655
164	0xbbad0ccd	-0.005281067
165	0x3c8a6383	0.016893154
166	0xbcb9286a	-0.022602279
167	0xbc2ecc2e	-0.010668797
168	0xbb9e0e85	-0.004823508
169	0x3c95d1f9	0.0182886
170	0xbbd228d6	-0.0064135594
171	0x3b82353b	0.0039736307
172	0x3b3c5efd	0.002874314
173	0xbbdc5e12	-0.0067250812
174	0xb9f86560	-0.00047377776
175	0x3c3f53b3	0.01167767
176	0xb9fa3cab	-0.00047728917
177	0xbc3a43d0	-0.011368707
178	0x3c734c0e	0.014849676
179	0x3c1e36dd	0.009656635
180	0xbc905e92	-0.01762322
181	0xbd1e09d6	-0.0385836
182	0xbcb99ded	-0.022658313
183	0xbca776fe	-0.020442482
184	0xbd3a0834	-0.04541798
185	0x3cf40101	0.029785635
186	0xbd1a0276	-0.037600003
187	0xbc8359bb	-0.016033998
188	0x3c606144	0.013695065
189	0x3c274173	0.010208475
190	0xbd094771	-0.033515397
191	0x3bae85e3	0.005326019
192	0x3adffe44	0.0017089327
193	0x39f51588	0.00046746084
194	0xbc68a35a	-0.014199102
195	0xbd1df152	-0.03856022
196	0x3c70898e	0.014681233
197	0x3cb5fa67	0.022214128
198	0x3b969576	0.004595454
199	0xbc1b2e11	-0.009471432
200	0x3c318990	0.01083602
201	0x3cd44df9	0.025916087
202	0x3b3c5cd8	0.0028741863
203	0x3c1d0720	0.009584218
204	0x3d532b74	0.051555112
205	0xbbe09254	-0.006853381
206	0x3caee8eb	0.021351298
207	0xbc6e499d	-0.014543918
208	0xbb14d08e	-0.0022707316
209	0xbb4cf487	-0.003127368
210	0x3b9584d3	0.004562953
211	0xbc4c529c	-0.0124708675
212	0xbcaaa9a6	-0.020832848
213	0xbcdd9a54	-0.027051128
214	0xbb93cf64	-0.004510807
215	0xbb6f6248	-0.0036527086
216	0x3c25ca77	0.010119072
217	0xbc89c128	-0.016815737
218	0x3cd4aace	0.025960352
219	0x3cc90401	0.024538042
220	0x3c5e589a	0.013570929
221	0x3d54b42b	0.051929634
222	0xbbf2eb89	-0.007413332
223	0x39dad358	0.00041737664
224	0xbd657b0c	-0.05602555
225	0xbca88b50	-0.020574242
226	0x3ca376b5	0.019954065
227	0x3d423438	0.04741308
228	0xbb8e5dd2	-0.0043446803
229	0xbc4087b5	-0.011751105
230	0xbcf60f0e	-0.030036476
231	0x3d17e597	0.03708419
232	0xbc53f8f2	-0.012937771
233	0xbc6a9646	-0.014318055
234	0x3c1f55cb	0.0097250445
235	0xbb62cb3d	-0.0034606003
236	0x3c63317b	0.0138667775
237	0xbc94d1d1	-0.018166455
238	0x3d485c6c	0.048916265
239	0xbc60ed38	-0.013728432
240	0xbbc4a589	-0.0060011786
241	0x3ca81094	0.020515718
242	0xbcff64c6	-0.031175982
243	0x3cf9279d	0.030414397
244	0xbbe0f3dd	-0.0068650083
245	0xbd026b9c	-0.031840906
246	0xbad148fa	-0.0015967183
247	0xbcf0ef32	-0.029410932
248	0xbd69fe03	-0.05712701
249	0xbcc2aa25	-0.023762772
250	0xbc10c600	-0.008836269
251	0xbb5915a9	-0.0033124483
252	0xbb67ad58	-0.0035351124
253	0x3c29f041	0.010372222
254	0x3bbdbdf2	0.0057904655
255	0x3ce1ff29	0.02758749

model.layers.0.self_attn.o_proj.lora.B.weight f4 [512, 8]
0	0xbb4307f1	-0.0029759372
1	0x38959308	7.13226e-05
2	0xbb3e3430	-0.0029022805
3	0xbbf2ba9b	-0.007407499
4	0x3bf76a90	0.007550545
5	0x3be56325	0.0070003443
6	0x3c0bfac3	0.008543673
7	0x3b0b6cbc	0.0021274528
8	0x3b375250	0.0027972646
9	0xbc6c3ae7	-0.01441834
10	0x3c043e7b	0.008071537
11	0x3b76834b	0.0037614878
12	0xbc2b38b8	-0.0104505345
13	0xbb9e6494	-0.004833767
14	0x3acf4d17	0.0015815821
15	0xbbcb30b7	-0.0062008756
16	0x3c0976e8	0.008390166
17	0xbb89cd3f	-0.0042053754
18	0x3b5032ab	0.0031768482
19	0xbb582d37	-0.0032985935
20	0xbb01ffbc	-0.0019836267
21	0xbb1587bf	-0.0022816507
22	0x3b1022d1	0.0021993408
23	0xbb0b50ad	-0.0021257803
24	0x3a350e73	0.0006906755
25	0xbb18f556	-0.002333959
26	0xbc070d80	-0.008242965
27	0x399f858d	0.00030426346
28	0xbc3e604c	-0.011619639
29	0xbb9e0426	-0.004822272
30	0x3aaa50df	0.0012994072
31	0x3c01626d	0.007897002
32	0xbc14f82d	-0.009092373
33	0xbc27fe7d	-0.010253546
34	0xbb0d0afa	-0.0021521435
35	0xbbfd309b	-0.0077267415
36	0xbc2edbaa	-0.010672489
37	0x3bb04ce7	0.005380261
38	0xbbaa5777	-0.005198415
39	0xbc3a025e	-0.011353103
40	0xbb1624c0	-0.0022910088
41	0x3c57cd71	0.01317154
42	0xba6216aa	-0.0008624593
43	0xbae0d510	-0.0017153341
44	0x3c4990f1	0.012302623
45	0x3c263604	0.010144714
46	0x3b7b8c8c	0.0038383333
47	0xbb16b368	-0.0022995118
48	0x3a66f079	0.0008809637
49	0xbb004b09	-0.0019575974
50	0xba44a30c	-0.00075011025
51	0x3b77541a	0.0037739337
52	0xbc00e749	-0.007867643
53	0x3bc92169	0.006138016
54	0xbc3bc70a	-0.011461029
55	0xbb52c5a1	-0.0032161253
56	0xbc104f0c	-0.008807909
57	0xbc09816f	-0.008392676
58	0x3c02f203	0.00799227
59	0xbb8a146a	-0.0042138593
60	0xbb9a48b3	-0.0047083735
61	0x3aa7afae	0.0012793445
62	0xbb9dd058	-0.0048160963
63	0xbb164da2	-0.0022934456
64	0x3bc91e36	0.0061376346
65	0x3b7b0e91	0.0038308243
66	0xbc0d856f	-0.00863777
67	0xbc03a3da	-0.008034671
68	0x3ab1cebd	0.0013565641
69	0x3c17cc50	0.0092650205
70	0xbc47ccb0	-0.012194797
71	0xbc46decd	-0.012138081
72	0x3b9f5f3e	0.0048636487
73	0x3bb3227d	0.005466758
74	0xbba84e0a	-0.005136256
75	0xbb03f864	-0.0020137066
76	0x3c0de13e	0.008659659
77	0x3c18ee61	0.009334178
78	0x3b1811f2	0.0023204056
79	0x3bd48dc3	0.006486626
80	0x3ac89d25	0.0015305622
81	0x3bb68132	0.0055696005
82	0x3b94588c	0.004527157
83	0x3c095143	0.008381191
84	0xbac1a44b	-0.0014773695
85	0x3b8c1e9b	0.0042761094
86	0x3b6e5fbb	0.0036372978
87	0xbad4de1e	-0.0016240512
88	0xbc09d8a8	-0.008413471
89	0x3a9168f2	0.0011093898
90	0xbb2f6bb7	-0.0026767084
91	0x3a02da8e	0.00049916736
92	0xbb74026f	-0.0037232896
93	0x3c19ad64	0.009379718
94	0x3be32af7	0.006932612
95	0xbb1dce3a	-0.002407922
96	0xbbdf5e02	-0.0068166265
97	0xbbb049fc	-0.0053799134
98	0x3baa93c0	0.0052056015
99	0xbc0b38c3	-0.00849742
100	0xb90ab641	-0.000132286
101	0x3ae37fce	0.0017356814
102	0xbc254b4f	-0.010088756
103	0xbc03faca	-0.008055398
104	0xbaf3673d	-0.0018570196
105	0x3bd7284d	0.0065660835
106	0xbb1a8e3f	-0.002358332
107	0xbbd56aa7	-0.006512958
108	0xbb0af6fd	-0.0021204345
109	0x3bf1cdfb	0.007379291
110	0x3bffe319	0.0078090546
111	0xbb43a260	-0.0029851422
112	0x3a71e229	0.0009227121
113	0xbb9ebc11	-0.0048441966
114	0xba97b565	-0.0011574446
115	0x37b87fbd	2.1993992e-05
116	0xbb2875ae	-0.0025704908
117	0xbbf2ee5d	-0.007413669
118	0x3b367d14	0.0027845548
119	0xbbed3dfc	-0.007240055
120	0x3aca5357	0.0015436214
121	0x3b8fd998	0.004389953
122	0x3a4aabbe	0.000773128
123	0x3bb21c4f	0.0054355036
124	0xbbacc694	-0.005272696
125	0xbc122219	-0.008919262
126	0xbc1fd06e	-0.009754283
127	0xbb049a46	-0.0020233556
128	0x3bf22d55	0.007390658
129	0x3b5e9077	0.003396062
130	0xbc1fd381	-0.009755016
131	0xbb456042	-0.0030117189
132	0x38f882d0	0.00011849927
133	0xbbfbd95a	-0.0076858224
134	0x3bb72691	0.0055893143
135	0x3b3c621b	0.0028745
136	0x3b888483	0.0041661873
137	0x39acf5f2	0.0003298964
138	0xbba7f9de	-0.005126222
139	0x3b0a90c9	0.0021143428
140	0xbad950b0	-0.0016579833
141	0x3bc3276d	0.0059556277
142	0xbb9c3283	-0.0047667637
143	0x3b946e28	0.004529733
144	0xbaba7ca0	-0.0014227815
145	0xbba7bace	-0.0051187044
146	0x3bb9fe01	0.0056760316
147	0xbbaaf6e5	-0.0052174204
148	0xbbe70794	-0.007050464
149	0x3add8a4e	0.001690218
150	0xbc0eb152	-0.008709269
151	0xbba24df1	-0.004953139
152	0x3b079614	0.0020688819
153	0xbbd98ac9	-0.006638859
154	0x3b867c0c	0.004104143
155	0x3c0ff649	0.008786746
156	0xbc407f65	-0.011749123
157	0x3ba5ef4b	0.0050639263
158	0xbb244836	-0.0025067455
159	0xbbca66a6	-0.0061767874
160	0x3b9b61ab	0.0047418675
161	0xbad42c9a	-0.0016187609
162	0x3b917ceb	0.00443994
163	0xbb9ce800	-0.0047883987
164	0xbbe547eb	-0.0069970987
165	0xba211ae6	-0.0006145671
166	0x3b12fe52	0.0022429419
167	0xbc16cbf8	-0.009203903
168	0x3bc5906f	0.0060291807
169	0xba1744d9	-0.0005770452
170	0x3b8409e3	0.004029499
171	0xba3e50e9	-0.00072599814
172	0x3c1fb140	0.00974685
173	0x3a0c55e4	0.0005353375
174	0xbb941fac	-0.004520377
175	0x3ae7a8ac	0.001767417
176	0x3b1412a5	0.002259412
177	0xbc54c527	-0.012986458
178	0xba0bb997	-0.0005330084
179	0xbc295648	-0.010335512
180	0xbb7d13a6	-0.0038616448
181	0x3c4a6383	0.012352827
182	0xbb1518a9	-0.0022750294
183	0xba8c946b	-0.0010725384
184	0xbb26ff0d	-0.0025481612
185	0xbb2a6c86	-0.0026004626
186	0x3c3c477a	0.011491651
187	0x3c03eb53	0.008051711
188	0xbbd672f6	-0.006544466
189	0x3b26610b	0.0025387432
190	0xbb6b589f	-0.0035910977
191	0xbba46270	-0.0050166175
192	0xbb1112ff	-0.0022136567
193	0x3bce6c8f	0.0062995623
194	0x3a5be7e7	0.0008388743
195	0x3c659e95	0.01401486
196	0x3b08baee	0.0020863372
197	0xba810f71	-0.0009846521
198	0x3c08e242	0.008354725
199	0xbb6546a1	-0.0034984725
200	0x3b02c9a1	0.0019956606
201	0xbbc8445d	-0.006111665
202	0xbbb7a8f6	-0.0056048585
203	0xbbc8d7c2	-0.006129236
204	0xbc25a679	-0.010110491
205	0xbc0a300c	-0.008434307
206	0x3bb411fd	0.0054953084
207	0x38481d0b	4.7710764e-05
208	0x3ab25f64	0.0013608751
209	0x3aae10da	0.0013280169
210	0x3b78adce	0.0037945393
211	0xbad20741	-0.001602389
212	0xbb8eaa59	-0.004353803
213	0x39f2f4dc	0.0004634027
214	0x3c367a8f	0.011137619
215	0xbbb145b3	-0.00540992
216	0xbc0ddf4e	-0.008659197
217	0x3bea64ff	0.007153153
218	0x3c363b3f	0.011122524
219	0x3c0a61f9	0.00844621
220	0x39c5296f	0.00037605638
221	0x3b151e3b	0.0022753614
222	0x3c26645c	0.0101557635
223	0xbbfb4309	-0.0076679033
224	0x3ab6e5fe	0.0013954041
225	0x3bb6ee53	0.0055826097
226	0xbba662ed	-0.005077711
227	0x3aa59ec9	0.0012635823
228	0xbac455b2	-0.0014979152
229	0x3bf064aa	0.007336219
230	0xbb343af0	-0.002750095
231	0x3b4ae4fe	0.0030959244
232	0x3c103395	0.008801361
233	0x3b68b073	0.0035505563
234	0x3c38ea9f	0.011286407
235	0x3ada4141	0.0016651527
236	0x39603b6c	0.00021384441
237	0xbb14f948	-0.002273159
238	0xb94f400e	-0.0001976492
239	0x3b81f89b	0.0039664037
240	0x3a4bce02	0.0007774533
241	0x3c1e62fb	0.0096671535
242	0xba995ab4	-0.0011700005
243	0xbc0d10e3	-0.008609983
244	0x3c0f4837	0.008745245
245	0x3c434855	0.011919101
246	0xbb826270	-0.00397902
247	0x3b51b860	0.0032000765
248	0x3b34db6f	0.0027596613
249	0x3adaa099	0.0016679942
250	0xbbd9a457	-0.0066419053
251	0x3b847cae	0.0040431833
252	0xbbf2ae74	-0.0074060503
253	0xbc10c2db	-0.00883552
254	0xbb161287	-0.0022899227
255	0x3ba90a0a	0.0051586675

model.layers.1.self_attn.q_proj.lora.A.weight f4 [8, 512]
0	0x3c953521	0.01821381
1	0x3cb44299	0.022004412
2	0xbbd546f0	-0.0065087005
3	0x3c06d14b	0.00822861
4	0x3c90fce0	0.017698705
5	0xbb515f26	-0.0031947582
6	0x3cc5904f	0.024116663
7	0x3c974106	0.018463623
8	0xbca91235	-0.020638565
9	0xbb34a152	-0.0027561975
10	0x3aa202b4	0.0012360425
11	0x3cb7859e	0.02240258
12	0x3bbbef50	0.0057353154
13	0xbc559ebd	-0.013038334
14	0xb9aa85dc	-0.0003252466
15	0x3c77ee3f	0.015132486
16	0x3cc131b6	0.023583274
17	0xbc111226	-0.008854425
18	0x3ce79a24	0.028271742
19	0x3c283b81	0.010268093
20	0xbc047fba	-0.008087093
21	0xbbbd1802	-0.005770684
22	0x3bd3b2b5	0.0064605125
23	0x3ca7e840	0.020496488
24	0x3ad013df	0.0015875063
25	0xbbc57e6e	-0.0060270345
26	0x3c9228ff	0.017841814
27	0xbc3598b2	-0.011083769
28	0xbc9e177c	-0.019298308
29	0xbc3a645f	-0.011376469
30	0x3bfc4c4f	0.0076995264
31	0xbcdce5c4	-0.02696503
32	0x3c8e4528	0.01736696
33	0xbc4dd454	-0.01256283
34	0x3c9c9a79	0.019116627
35	0x3ccba332	0.024858091
36	0xbcb234a2	-0.021753613
37	0x3c502db7	0.012706212
38	0x3cd0d087	0.025490059
39	0x3d034601	0.032049183
40	0x3d21dcad	0.039517093
41	0xbc91a9cd	-0.017781163
42	0xbb3994ab	-0.0028317373
43	0x3bb19435	0.005419279
44	0x3d2351dc	0.03987299
45	0x3c942555	0.018084208
46	0x3b134d88	0.0022476632
47	0xbbd16f55	-0.0063914456
48	0x3cb6d1e1	0.022316875
49	0x3c01987b	0.007909889
50	0x3cf6e80f	0.030139951
51	0x3af45c9e	0.0018643325
52	0xbc043c6a	-0.008071044
53	0xb7bf6b79	-2.281902e-05
54	0xbcdfba08	-0.027310386
55	0x3b975769	0.0046185744
56	0xbbe28959	-0.006913346
57	0x3bf47928	0.007460732
58	0x3ca2c296	0.019868176
59	0x3b5ad426	0.003339061
60	0x3cf6afe5	0.03011317
61	0xbc5e7300	-0.013577223
62	0x3d02844d	0.031864453
63	0xbc4785c5	-0.012177889
64	0xbc599010	-0.013278976
65	0x3c2aab85	0.01041687
66	0x3ba4e044	0.0050316174
67	0xbccdb8c0	-0.02511251
68	0x3ba97bbb	0.0051722205
69	0xbd4c1987	-0.049829032
70	0xbcffacb0	-0.031210274
71	0xbcb74ac8	-0.022374526
72	0x3bf1c09b	0.0073776967
73	0xbc47b937	-0.012190155
74	0xbc49ac32	-0.012309121
75	0x3c8b4026	0.016998362
76	0xbc8ecb78	-0.017431006
77	0xbcc6a072	-0.024246428
78	0xbbe8741d	-0.00709392
79	0x3c6f6e60	0.014613718
80	0x3cdbecc8	0.026846305
81	0xbb145efa	-0.0022639618
82	0xbcd41aa6	-0.025891613
83	0x3ca63f95	0.02029399
84	0xbcad44c6	-0.021150958
85	0xbc8fa733	-0.017535781
86	0x3cb121dc	0.02162259
87	0x3d2b66ef	0.041846212
88	0x3c16a0ef	0.009193643
89	0x3cb5cd6e	0.022192683
90	0x3bf8e3e3	0.0075955256
91	0x3d314964	0.04328288
92	0x3cd6884d	0.02618804
93	0xbc2eeb42	-0.010676207
94	0xbce546a9	-0.027987795
95	0x3cac5218	0.02103524
96	0xbd0327ac	-0.032020256
97	0x3cbf6bb3	0.023366785
98	0xbc21381d	-0.009840039
99	0xbc737d9a	-0.014861489
100	0x3d741088	0.059586078
101	0xbc904259	-0.017609762
102	0x3c1cfaed	0.00958131
103	0x3b0a3db8	0.0021093916
104	0x3c858ee3	0.016303485
105	0x3acc32ae	0.0015579069
106	0x3a6fc0bd	0.00091458467
107	0x3cad129d	0.02112704
108	0x3c26d56b	0.010182719
109	0xbcb56b33	-0.022145843
110	0x3cf3d2ad	0.029763544
111	0xbc537398	-0.012905978
112	0x3a9f7d02	0.0012167993
113	0xbc1113a5	-0.008854781
114	0xbbd81fca	-0.0065955864
115	0xb953669f	-0.00020160757
116	0xbbe3d30b	-0.0069526485
117	0x3c41c1f3	0.011826026
118	0xbcc8cd7b	-0.024512043
119	0xbc6848a5	-0.014177476
120	0xbc8a1526	-0.016855787
121	0xbb883aa6	-0.004157382
122	0x3ca9bb38	0.020719156
123	0x3d3cdf40	0.046111345
124	0xbcdf9da8	-0.027296856
125	0x3d08ea3b	0.033426505
126	0x3d0844d8	0.03326878
127	0x3c4ad3ba	0.012379581
128	0x3c3deb34	0.011591721
129	0xbca50ab4	-0.020146705
130	0xbcf4de16	-0.029891055
131	0x3c96b325	0.01839597
132	0xbcfa7817	-0.030574841
133	0xbc062d09	-0.008189448
134	0xbb692835	-0.0035576944
135	0xbc88c769	-0.016696649
136	0xbb9a14a5	-0.004702168
137	0x3c84a35c	0.016191177
138	0x3d4acf4c	0.0495141
139	0xbc44ebe1	-0.012019129
140	0xbd04affb	-0.03239439
141	0xbb91ba15	-0.0044472315
142	0xbc1afd6e	-0.009459836
143	0x3caaf0a5	0.020866701
144	0xbcd8c5ba	-0.02646147
145	0x3c7a58d4	0.015279967
146	0x3d180da4	0.037122384
147	0xbb4d45f5	-0.0031322215
148	0x3c4c46d3	0.012468058
149	0xbcc212c8	-0.023690596
150	0xbd14a3a7	-0.036288884
151	0x3d003d71	0.031308595
152	0x3cfa8475	0.030580739
153	0xbbeb6fd3	-0.0071849613
154	0xbc16db18	-0.009207509
155	0xbca4e672	-0.020129416
156	0xbc1fcb2d	-0.009753031
157	0x3ceb0ccc	0.028692625
158	0xbcb60efb	-0.02222394
159	0x3c5129c1	0.012766303
160	0x3bfaea2d	0.0076573105
161	0xbc833da9	-0.016020613
162	0xbc4656a5	-0.012105619
163	0x3c53ff2e	0.012939258
164	0x395eead3	0.00021259049
165	0x3d31e232	0.043428607
166	0x3bcefe73	0.006316954
167	0xbc3e05d1	-0.011598066
168	0x3c56a336	0.013100436
169	0x3ccbbc1b	0.02486997
170	0x3c19d0cb	0.009388159
171	0xbb4698f9	-0.003030358
172	0x3c76b8ec	0.015058737
173	0xbb4e9cd0	-0.0031526573
174	0xbb8d050d	-0.0043035806
175	0xbc7adf35	-0.015312006
176	0xbb453e71	-0.0030097032
177	0xbb99d63d	-0.0046947286
178	0xbc6485e4	-0.013947938
179	0xbb378f0e	-0.0028008851
180	0xbcc4798e	-0.023983743
181	0xbc44f846	-0.012022084
182	0xbcd592ab	-0.026070913
183	0x3be81a12	0.007083186
184	0x3abfc921	0.0014632085
185	0x3d18ac02	0.037273414
186	0xbbee065a	-0.0072639408
187	0xba998ab5	-0.0011714312
188	0x3c74468d	0.014909399
189	0xbc57429b	-0.013138439
190	0xbbc27246	-0.0059340326
191	0x3be1297a	0.0068713995
192	0x3c3a8be0	0.011385888
193	0xbca7d4af	-0.020487158
194	0x3c16c4de	0.00920221
195	0x3c62b729	0.013837614
196	0xbcc69e56	-0.024245422
197	0x3c258fa8	0.010105051
198	0x3d361ec6	0.04446294
199	0x3ca8c999	0.020603942
200	0xbb0fae16	-0.0021923832
201	0x3cbdc621	0.023165764
202	0x3cb9f4f3	0.022699809
203	0x3c303607	0.010755069
204	0x3c7bdf65	0.015373086
205	0xba9cff4d	-0.0011977941
206	0x3cac87ca	0.021060843
207	0x3c0447bb	0.0080737425
208	0x3cd0c62f	0.025485126
209	0x3c80ab9b	0.015706828
210	0xbd07233a	-0.03299258
211	0xbcc78393	-0.024354732
212	0x3c29baad	0.010359448
213	0xbd3530a9	-0.04423586
214	0xbb995dbd	-0.004680364
215	0xbc45bedf	-0.012069433
216	0xbbd779d4	-0.0065758023
217	0x3a54273e	0.0008093006
218	0xbc858f39	-0.016303645
219	0x3d5e0c78	0.05421111
220	0xbd20958b	-0.039205115
221	0x3cc0414f	0.023468642
222	0x3c6a302d	0.014293713
223	0xbd0a90c2	-0.033829458
224	0x3cd7ab57	0.026326818
225	0xbae1a90e	-0.001721652
226	0xbcc1ace2	-0.023642007
227	0xbc9499ca	-0.018139739
228	0xbbc84348	-0.006111536
229	0xbbea1e13	-0.0071446984
230	0xbaab0adb	-0.00130495
231	0xbbc52be9	-0.0060171974
232	0xbcada280	-0.02119565
233	0xbc9d5a64	-0.01920814
234	0xbb943bad	-0.0045237155
235	0xbcd2113d	-0.025642985
236	0xbca4c612	-0.020113979
237	0xbc488410	-0.012238517
238	0x3c406956	0.011743864
239	0xbc108d73	-0.008822787
240	0xbcca04ad	-0.024660433
241	0x3cbd0858	0.023075268
242	0x3b1027da	0.002199641
243	0x3c8be38a	0.017076273
244	0x3cf0d26f	0.029397218
245	0x3d03afda	0.032150127
246	0xbce40fa1	-0.027839484
247	0xbc60ad3a	-0.013713175
248	0xbcdd7598	-0.027033612
249	0xbcf87f06	-0.030334007
250	0x3c5ae26d	0.013359648
251	0x3aefb78a	0.0018288952
252	0x3c944a52	0.018101845
253	0x3b15acb9	0.0022838546
254	0x3c07478f	0.008256807
255	0xbbe106d1	-0.0068672677

model.layers.1.self_attn.q_proj.lora.B.weight f4 [512, 8]
0	0x3ba42eb3	0.00501045
1	0x3c28ec85	0.010310297
2	0x3c024975	0.007952084
3	0xbc06387f	-0.008192181
4	0x3b8708bf	0.0041209157
5	0xbc113de8	-0.008864857
6	0xbc3da1e8	-0.011574246
7	0x3bfa2f2a	0.007635017
8	0xbb70a70d	-0.0036720664
9	0xbc11f592	-0.008908646
10	0xbbe156fb	-0.006876824
11	0x3c1fb313	0.009747284
12	0xbb19eab0	-0.0023485832
13	0x3b5648d9	0.003269723
14	0x3b50e0f0	0.0031872354
15	0x37ddcd92	2.644098e-05
16	0xbb905024	-0.0044040848
17	0xbaa2bf01	-0.0012416543
18	0xbbcda7d6	-0.006276111
19	0x3bc599a5	0.0060302787
20	0x3bbd2260	0.00577192
21	0x3b929ace	0.0044740206
22	0x3c3156c3	0.010823908
23	0xbc0e575a	-0.008687818
24	0xbb105c59	-0.00220277
25	0xbbf06bc3	-0.007337065
26	0xbbb24b31	-0.0054410924
27	0x3c1a2fbf	0.009410798
28	0x3bb7f885	0.0056143426
29	0x3b2198ba	0.0024657683
30	0x3bd62ced	0.0065361173
31	0x3a02abdd	0.0004984716
32	0x3babae30	0.0052392706
33	0x3c310257	0.0108037805
34	0x3becbf67	0.0072249654
35	0xbc2a07af	-0.0103778085
36	0xbb8e1102	-0.0043355236
37	0xb9fdfa91	-0.00048442607
38	0xbbb2ffb8	-0.005462613
39	0xba30d179	-0.0006745081
40	0xbbde8204	-0.0067904014
41	0xbb94c436	-0.0045399917
42	0xbb791876	-0.0038008965
43	0x3b934fd6	0.004495601
44	0xb8d0adaa	-9.95056e-05
45	0xbab07ba3	-0.0013464581
46	0x3a0ccf36	0.0005371453
47	0xbaf599d7	-0.0018737864
48	0x3b2ab46d	0.0026047484
49	0x3bc568e8	0.0060244687
50	0x3bb7de21	0.0056111966
51	0xbc0dcab6	-0.008654287
52	0xbbb4b245	-0.0055144154
53	0xbb53cb1c	-0.0032317108
54	0xbbfe1f90	-0.0077552274
55	0x3b00852a	0.0019610622
56	0x3b3999d6	0.0028320453
57	0x3b60122e	0.0034190523
58	0x3bb5cb26	0.005547899
59	0xbac8d6d6	-0.0015322815
60	0x3ad399a3	0.001614381
61	0x3916c457	0.00014378257
62	0xba1426fb	-0.00056515605
63	0xbab56bea	-0.0013841365
64	0x3b401cba	0.0029313997
65	0x3bdc16a6	0.006716567
66	0x3ae642f4	0.0017567561
67	0xbb3fb936	-0.0029254681
68	0xbba6bc3c	-0.0050883573
69	0x3ae69ae6	0.0017593771
70	0x3b167202	0.0022956138
71	0xbb9a5373	-0.004709655
72	0xbb042e62	-0.0020169248
73	0xbb68bdfb	-0.0035513628
74	0xbbd10a0e	-0.0063793724
75	0x3b8697bb	0.004107443
76	0x3b47d086	0.003048928
77	0x3b60d32a	0.003430555
78	0x3be36bfe	0.006940364
79	0xbb67529f	-0.0035297049
80	0xbae53740	-0.0017487779
81	0xbb8be131	-0.0042687883
82	0xbb5ea098	-0.0033970233
83	0x3b76cd9f	0.003765918
84	0x39abe4a5	0.00032786015
85	0x3bc62ab2	0.00604757
86	0x3bdc9748	0.0067319013
87	0xbb05ebde	-0.0020434777
88	0x3b7b7e2c	0.0038374765
89	0x3c001d3c	0.00781947
90	0x3bfed65a	0.0077770175
91	0xbc36c95a	-0.011156404
92	0x3b2a59d2	0.0025993478
93	0xbc168a62	-0.0091882665
94	0xbc0c3417	-0.008557341
95	0x3bbd12e2	0.0057700733
96	0x3adf5757	0.0017039579
97	0x3b418194	0.0029526697
98	0xba86fb3a	-0.001029826
99	0xbaa6fc03	-0.00127399
100	0xbbb5c890	-0.0055475906
101	0x3b27c66a	0.0025600442
102	0x3b1ba24f	0.0023747867
103	0xbb5cac68	-0.0033672098
104	0x3b52aafb	0.003214537
105	0x3b8db602	0.0043246755
106	0x3b11ac38	0.0022227895
107	0xbbabf1d6	-0.005247335
108	0xbb80b4ea	-0.0039278166
109	0x3b68c973	0.0035520464
110	0x3adacba2	0.0016692767
111	0xbb023994	-0.0019870745
112	0xbb4588c8	-0.0030141342
113	0xbbd75f40	-0.006572634
114	0xbbe6ad69	-0.007039715
115	0x3c08ff1a	0.008361602
116	0x3a81ff2e	0.0009917968
117	0x3bc198f6	0.005908127
118	0x3c12718f	0.008938207
119	0xbb2e9136	-0.0026636845
120	0xbba28a92	-0.0049603665
121	0xbbbea172	-0.0058175856
122	0xbc5972b8	-0.01327198
123	0x3c336b60	0.010950893
124	0x3a638482	0.0008679108
125	0x3c4c27bd	0.012460646
126	0x3c388488	0.011262067
127	0xbc4ba59c	-0.012429621
128	0xbad936b9	-0.0016572095
129	0xbb5b8921	-0.0033498483
130	0xbb72804c	-0.003700274
131	0x3b804483	0.0039144172
132	0x3bb53431	0.0055299033
133	0x3b5f11c1	0.0034037682
134	0x3c140974	0.009035457
135	0xbb8c0861	-0.00427346
136	0x3a471b34	0.0007595301
137	0xbb62ee4d	-0.0034626902
138	0xba3c0b18	-0.0007173284
139	0x3b431d55	0.0029772122
140	0x3befe3f0	0.0073208734
141	0x3a9e0bc3	0.0012057949
142	0x3b846a12	0.004040965
143	0xb92fd74b	-0.00016769503
144	0x3b0eeb9f	0.0021807922
145	0x3b3f1cad	0.002916138
146	0x3af760d6	0.0018873464
147	0xbb473781	-0.0030398073
148	0xbaa02950	-0.0012219343
149	0x39b71d2e	0.0003492622
150	0xbac26091	-0.0014829804
151	0xba26ac8b	-0.00063581084
152	0x3b187b67	0.0023266913
153	0x3b7f17e3	0.003892415
154	0x3b1d866f	0.0024036427
155	0xbb557377	-0.0032570043
156	0xbb220618	-0.002472287
157	0x3a261e57	0.00063369184
158	0xbadcd8e4	-0.0016849306
159	0xba8f56d2	-0.0010935909
160	0x3af96092	0.0019025973
161	0x3b4c99eb	0.0031219672
162	0x3aa9f821	0.0012967625
163	0xbb0762b7	-0.0020658204
164	0xbb98b85a	-0.0046606483
165	0xba60a813	-0.0008569967
166	0xbb5262bd	-0.003210231
167	0x3a9fd252	0.0012193418
168	0x3b8ec39c	0.0043568145
169	0x3b2ed43c	0.0026676795
170	0x3b149eb8	0.0022677612
171	0xbbd01a48	-0.006350789
172	0xbaba2f56	-0.0014204781
173	0x39d6afa3	0.0004094812
174	0xb9a49378	-0.0003139039
175	0x3a9e0db8	0.0012058532
176	0xbb1e9daf	-0.0024202873
177	0xbba34070	-0.004982047
178	0x3b9fbb86	0.0048746495
179	0x3aae19d4	0.0013282844
180	0x3bbf698e	0.0058414405
181	0xbbe979d4	-0.0071251187
182	0xbbb77ea8	-0.0055998154
183	0x3bcf4bc5	0.006326171
184	0x3b06d075	0.0020571027
185	0x3ba55a53	0.005046168
186	0x3b57f696	0.0032953373
187	0xbbcb0750	-0.00619594
188	0xbb0267be	-0.001989826
189	0xbb10b917	-0.0022082978
190	0xbb666cae	-0.0035159993
191	0xbaf3c955	-0.001859943
192	0xba42be6c	-0.0007428888
193	0x3754b794	1.2678927e-05
194	0x3ab5b9f5	0.0013864624
195	0xba919865	-0.0011108039
196	0x393691e2	0.00017411218
197	0x3ace2e16	0.0015730287
198	0x3b3c8e93	0.0028771504
199	0xbab45328	-0.0013757693
200	0xb92cdfaa	-0.0001648652
201	0x3bed8184	0.0072481055
202	0x3b4c6599	0.0031188487
203	0xbb6173dd	-0.0034401335
204	0x3b4d246d	0.003130223
205	0x3bca80ba	0.006179896
206	0x3b8b0d8a	0.0042435573
207	0xbba0f2f1	-0.0049117734
208	0xbad908bb	-0.0016558388
209	0xbb90c63f	-0.004418164
210	0xbbb0decf	-0.0053976546
211	0x3b8b7a56	0.004256527
212	0x3b2410a0	0.0025034323
213	0x3af50fd4	0.0018696734
214	0x3ba0a16c	0.0049020555
215	0xba60f5d7	-0.0008581555
216	0x3b95c903	0.0045710816
217	0x3b64d068	0.003491426
218	0x3b33f9bd	0.0027462088
219	0xbb156369	-0.0022794849
220	0xbbde3c26	-0.0067820726
221	0xbacf7dbc	-0.0015830318
222	0xbbdb646b	-0.0066953204
223	0x3b0e32c0	0.002169773
224	0x3b9913a2	0.00467153
225	0x3bc97fdc	0.006149275
226	0x3b914f8e	0.0044345325
227	0xbbce6b8d	-0.006299442
228	0xbc0bb11e	-0.008526115
229	0x3b059802	0.0020384793
230	0x3b3cd3c8	0.0028812755
231	0xbad7447f	-0.0016423612
232	0xbc0b7c52	-0.008513527
233	0xbb89ae9d	-0.0042017237
234	0xbb99a5c7	-0.0046889517
235	0x3c0d897d	0.008638737
236	0x3b9f0ff5	0.004854197
237	0xbb9458a5	-0.004527169
238	0x39877748	0.00025838078
239	0x3a8c2e7b	0.0010695005
240	0xbb501d1e	-0.0031755636
241	0xbb67bf2e	-0.0035361755
242	0xbb1aad3b	-0.0023601789
243	0x3b53ea2e	0.0032335627
244	0x3b37ca2b	0.0028044085
245	0x39b226e5	0.00033979784
246	0x3b567804	0.0032725343
247	0xbaa1507b	-0.001230731
248	0xb990e030	-0.00027632853
249	0xbac7bdfc	-0.0015239115
250	0xbbec5f66	-0.007213521
251	0x3b3947ed	0.002827163
252	0xba2828b3	-0.0006414756
253	0x3b9d52c6	0.004801127
254	0x3c216f8e	0.009853257
255	0xbc2bec09	-0.010493287

model.layers.1.self_attn.o_proj.lora.A.weight f4 [8, 512]
0	0xbca48e4e	-0.020087387
1	0x3bdf4117	0.0068131792
2	0xbca21a28	-0.019787863
3	0x3b5dfd1e	0.0033872793
4	0x3c193068	0.00934992
5	0x3bc7d55d	0.006098433
6	0x3c7d9a15	0.015478631
7	0xbb94ae65	-0.004537391
8	0x3941dcc9	0.00018488163
9	0x3c52ba08	0.012861736
10	0x3a046d3c	0.00050516776
11	0xbc184039	-0.009292656
12	0x3a8bbf28	0.0010661827
13	0x3d2d5006	0.042312644
14	0xbbb4f0a2	-0.0055218497
15	0x3c0f88f5	0.00876068
16	0xbbce1dff	-0.006290197
17	0xbbe210c3	-0.006898971
18	0xbd06f789	-0.03295091
19	0x3cc9f54a	0.024653096
20	0xbc873b7a	-0.016507853
21	0xbbd453d1	-0.0064797183
22	0x3b59b3f0	0.0033218823
23	0xbd084790	-0.033271372
24	0xbcda752a	-0.026667196
25	0xbb9a22fc	-0.0047038775
26	0xbcb0450e	-0.021517303
27	0x3cc13c84	0.023588426
28	0x3b6f18e3	0.003648334
29	0xbcbc1811	-0.022960695
30	0xbd10fa4a	-0.035394944
31	0x3c84acb1	0.016195627
32	0x3bf0e3a4	0.0073513556
33	0x3c930e3b	0.017951122
34	0xbcb92117	-0.022598786
35	0x3c7a0df8	0.0152621195
36	0xbc90ab6d	-0.017659867
37	0xbc86ce9f	-0.016455946
38	0xbbe975bf	-0.007124632
39	0x3c8be0e1	0.017075004
40	0x3b14163e	0.0022596265
41	0xbb38fe36	-0.0028227693
42	0x3d382392	0.044955797
43	0xbc4ef7b8	-0.012632303
44	0xbc250a3e	-0.010073243
45	0x3c880661	0.016604604
46	0x3cc6de02	0.024275783
47	0xbc62b2cf	-0.013836577
48	0x3b107f81	0.0022048655
49	0xbc8e2f25	-0.017356465
50	0xbcfc64a6	-0.030809712
51	0xbc6309b0	-0.01385729
52	0xbca92e36	-0.020651918
53	0x3bcb14db	0.0061975545
54	0x3bba02a8	0.005676586
55	0x3bdd9d76	0.0067631556
56	0x3c007d53	0.00784238
57	0x3c679cf9	0.014136546
58	0xbd1eaa4e	-0.038736634
59	0xbd53b304	-0.051684394
60	0x3c2e9cf3	0.010657537
61	0x3cd3712c	0.0258108
62	0x3c63b647	0.013898439
63	0xbc1667c2	-0.009180011
64	0xbc6833b5	-0.014172484
65	0x3bc0a79c	0.0058793556
66	0x3b2a2bee	0.0025966126
67	0x3c9876cd	0.018611336
68	0x3bbf8ab1	0.0058453907
69	0xbcd18368	-0.025575355
70	0xbc592dc2	-0.013255538
71	0x3cb0c7ae	0.02157959
72	0xbd175c47	-0.036953237
73	0xbca1796b	-0.019711217
74	0x3c7241a1	0.014786155
75	0xbd174324	-0.036929265
76	0xbd425f4a	-0.047454156
77	0xbae630bd	-0.0017562133
78	0xbc269889	-0.010168203
79	0x3c198997	0.009371183
80	0x3c93db5d	0.018048937
81	0x3d303ea1	0.043028478
82	0xbcfdf553	-0.031000769
83	0x3c92442f	0.017854778
84	0xbd85effe	-0.065399155
85	0xbcc64af2	-0.024205659
86	0x3b02b8be	0.001994654
87	0xbcae1816	-0.02125172
88	0xbba51538	-0.00503793
89	0xba038b9a	-0.00050180557
90	0x3c5a295f	0.013315528
91	0x3c968ccb	0.018377682
92	0xbd3639d5	-0.044488747
93	0xbbacf7a1	-0.005278543
94	0xbc48da61	-0.012259097
95	0xbbb721aa	-0.00558873
96	0x3b16d03a	0.0023012296
97	0x3cfe8232	0.031067941
98	0x3d16b7f0	0.03679651
99	0x3ce3ced6	0.027808588
100	0x3c438e57	0.011935792
101	0x3b975323	0.004618065
102	0x3bd01bf1	0.006350987
103	0x3d30ef77	0.04319712
104	0x3c31abf5	0.01084422
105	0xbcccdc5f	-0.025007425
106	0x3d0893a4	0.033343926
107	0x3c04f821	0.008115799
108	0x3baa7bc6	0.005202743
109	0x3c8abfb8	0.016937122
110	0x3b8d008b	0.0043030432
111	0x3c30a5f8	0.0107817575
112	0x3bf8488d	0.007577008
113	0x3b8ab770	0.0042332932
114	0xbd038842	-0.032112367
115	0xbc9bc78b	-0.019016048
116	0x3bdcce71	0.006738477
117	0x3b092129	0.0020924306
118	0x3c6969cb	0.014246414
119	0xbc2a0485	-0.010377054
120	0x3cbb3dd1	0.022856625
121	0xbcd652bc	-0.026162498
122	0xbb8aec22	-0.004239575
123	0xbd53eeb6	-0.051741324
124	0x3c344653	0.011003095
125	0x3c146351	0.009056882
126	0xbc8414b5	-0.016123155
127	0x3c44bde1	0.012008161
128	0x3c50e278	0.012749307
129	0x3c2d03ee	0.010560019
130	0x3c59c71a	0.013292098
131	0xbd0ebebb	-0.034849863
132	0x39a8c174	0.0003218759
133	0x3b99a188	0.0046884455
134	0xbd299a77	-0.041407075
135	0x3d266b83	0.040629875
136	0xbcc0e99c	-0.023548894
137	0x3c9e47d9	0.019321369
138	0x3cefc269	0.029267507
139	0x3bc7cce7	0.0060974243
140	0x3c97a6c7	0.018512143
141	0x394c0075	0.00019455126
142	0x3c1590e2	0.009128781
143	0x3b2f3a4d	0.002673763
144	0xbc3f6b9f	-0.011683374
145	0x3c127d7a	0.008941049
146	0xbbcb12b5	-0.0061972984
147	0xbbce8b1f	-0.0063032056
148	0xbc866c6e	-0.016409125
149	0xbb6b7b8f	-0.00359318
150	0xbcaa8c92	-0.020818982
151	0x3cd67578	0.02617906
152	0xbc3347a5	-0.010942374
153	0x3d614bac	0.055003807
154	0xbc3c8b9b	-0.011507894
155	0x3bb13b2a	0.0054086642
156	0xbca79a7a	-0.020459402
157	0xbcb7c83d	-0.022434348
158	0x3d26eb8d	0.040751982
159	0x3cdbab99	0.026815223
160	0xbc361e3b	-0.011115606
161	0x3c968d78	0.018378004
162	0x3c33ec30	0.010981604
163	0x3cc340bb	0.023834577
164	0xbc1eb8a8	-0.00968758
165	0xbcf8669b	-0.030322364
166	0x39a83156	0.00032080215
167	0x3b811466	0.0039391993
168	0x3b60f689	0.0034326634
169	0x3ae981f3	0.0017815217
170	0xbc095893	-0.008382934
171	0xbc312852	-0.010812836
172	0xbd2105f9	-0.039312337
173	0xbb158efb	-0.0022820819
174	0xbbd8ac57	-0.0066123414
175	0xbbba55e5	-0.005686509
176	0x3c1b7788	0.009488948
177	0x3cbb8f01	0.022895338
178	0xbcfb1b1c	-0.030652575
179	0x3c32771d	0.010892657
180	0xbd231609	-0.039815936
181	0xbd1287e1	-0.035774115
182	0xbc008f38	-0.007846646
183	0xbc4cc85f	-0.012498944
184	0xbc0f5309	-0.0087478245
185	0x3ce22bdd	0.027608806
186	0xbc973c0a	-0.018461246
187	0xbc1339e1	-0.008985967
188	0xbc94c37f	-0.018159626
189	0x3d0c8302	0.034304626
190	0xbcbbd30d	-0.022927785
191	0x3ca500de	0.020142015
192	0x3ca38390	0.019960195
193	0x3cc0797c	0.023495428
194	0x3b396522	0.002828904
195	0xbd124bf4	-0.035716966
196	0xbb4670c2	-0.0030279611
197	0x3d316f92	0.043319292
198	0x3c716bd9	0.014735186
199	0x3c153272	0.009106265
200	0xbb7ee306	-0.003889264
201	0x3cb0b0ff	0.021568773
202	0x3b948c4e	0.004533327
203	0x3bfd2946	0.0077258674
204	0xbd096bc1	-0.033550028
205	0x3d2345d3	0.03986151
206	0x3ba606c5	0.005066725
207	0xbcacb436	-0.021082025
208	0xbd621bc9	-0.05520228
209	0xbd2aa719	-0.041663263
210	0xbca2ad54	-0.01985804
211	0xbb7c2ac0	-0.003847763
212	0x3b80ff3d	0.003936677
213	0x3c0dd98d	0.008657825
214	0x3c457a19	0.012053036
215	0xbd7aa0b4	-0.061188415
216	0xbac5e765	-0.0015098868
217	0x3c9ece95	0.019385615
218	0xbc76a6f0	-0.015054449
219	0x3d3490cb	0.044083398
220	0x3c59a976	0.013285032
221	0xbd3df05d	-0.046371806
222	0xbcda7e81	-0.02667165
223	0xba8382bc	-0.0010033469
224	0x3c088650	0.008332804
225	0x3cca756a	0.02471419
226	0x3d0bb7fb	0.034111004
227	0xbcd3aeea	-0.025840241
228	0x3ccfc172	0.025360797
229	0xbd30184d	-0.042991925
230	0x3cb9a26d	0.022660458
231	0x3d25dd00	0.040493965
232	0xbcafa5e2	-0.021441404
233	0xbca2ee06	-0.019888889
234	0x3bd29a65	0.0064270967
235	0xbd952b54	-0.07283655
236	0x3da877f7	0.082260065
237	0x3b96015c	0.004577799
238	0xbc335ba5	-0.010947143
239	0xbd3463c6	-0.044040464
240	0xbb8ee7ee	-0.0043611443
241	0x3cfaf36a	0.030633647
242	0xbc43a86a	-0.0119420085
243	0xb9ee3264	-0.0004543244
244	0x3cf3a275	0.029740551
245	0x3d029930	0.031884372
246	0x3ca161d3	0.019699967
247	0x3c20cab9	0.009813958
248	0x3c8714e3	0.016489452
249	0x3cf67385	0.03008438
250	0xbc29e251	-0.010368899
251	0x39e70b90	0.00044068368
252	0x3c8bc9d8	0.01706402
253	0x3d451b6d	0.04812186
254	0x3cb38517	0.021914048
255	0x3c544dcc	0.012958001
